ir_version: 3
producer_name: "Chainer"
producer_version: "6.0.0b1"
graph {
  node {
    input: "Input_0"
    input: "Input_1"
    input: "Input_2"
    output: "Conv_0"
    op_type: "Conv"
    attribute {
      name: "dilations"
      ints: 1
      ints: 1
      type: INTS
    }
    attribute {
      name: "group"
      i: 1
      type: INT
    }
    attribute {
      name: "kernel_shape"
      ints: 6
      ints: 6
      type: INTS
    }
    attribute {
      name: "pads"
      ints: 0
      ints: 0
      ints: 0
      ints: 0
      type: INTS
    }
    attribute {
      name: "strides"
      ints: 2
      ints: 2
      type: INTS
    }
  }
  node {
    input: "Input_3"
    input: "Input_4"
    input: "Input_5"
    output: "Conv_1"
    op_type: "Conv"
    attribute {
      name: "dilations"
      ints: 1
      ints: 1
      type: INTS
    }
    attribute {
      name: "group"
      i: 1
      type: INT
    }
    attribute {
      name: "kernel_shape"
      ints: 30
      ints: 30
      type: INTS
    }
    attribute {
      name: "pads"
      ints: 0
      ints: 0
      ints: 0
      ints: 0
      type: INTS
    }
    attribute {
      name: "strides"
      ints: 10
      ints: 10
      type: INTS
    }
  }
  node {
    input: "Input_6"
    input: "Input_7"
    input: "Input_8"
    output: "Conv_2"
    op_type: "Conv"
    attribute {
      name: "dilations"
      ints: 1
      ints: 1
      type: INTS
    }
    attribute {
      name: "group"
      i: 1
      type: INT
    }
    attribute {
      name: "kernel_shape"
      ints: 3
      ints: 3
      type: INTS
    }
    attribute {
      name: "pads"
      ints: 0
      ints: 0
      ints: 0
      ints: 0
      type: INTS
    }
    attribute {
      name: "strides"
      ints: 1
      ints: 1
      type: INTS
    }
  }
  node {
    input: "Conv_2"
    input: "Conv_1"
    input: "Conv_0"
    output: "Concat_0"
    op_type: "Concat"
    attribute {
      name: "axis"
      i: 1
      type: INT
    }
  }
  node {
    input: "Concat_0"
    input: "Input_9"
    input: "Input_10"
    output: "Conv_3"
    op_type: "Conv"
    attribute {
      name: "dilations"
      ints: 1
      ints: 1
      type: INTS
    }
    attribute {
      name: "group"
      i: 1
      type: INT
    }
    attribute {
      name: "kernel_shape"
      ints: 3
      ints: 3
      type: INTS
    }
    attribute {
      name: "pads"
      ints: 1
      ints: 1
      ints: 1
      ints: 1
      type: INTS
    }
    attribute {
      name: "strides"
      ints: 1
      ints: 1
      type: INTS
    }
  }
  node {
    input: "Conv_3"
    output: "LeakyRelu_0"
    op_type: "LeakyRelu"
    attribute {
      name: "alpha"
      f: 0.20000000298023224
      type: FLOAT
    }
  }
  node {
    input: "LeakyRelu_0"
    input: "Input_11"
    input: "Input_12"
    output: "Conv_4"
    op_type: "Conv"
    attribute {
      name: "dilations"
      ints: 1
      ints: 1
      type: INTS
    }
    attribute {
      name: "group"
      i: 1
      type: INT
    }
    attribute {
      name: "kernel_shape"
      ints: 3
      ints: 3
      type: INTS
    }
    attribute {
      name: "pads"
      ints: 1
      ints: 1
      ints: 1
      ints: 1
      type: INTS
    }
    attribute {
      name: "strides"
      ints: 1
      ints: 1
      type: INTS
    }
  }
  node {
    input: "Conv_4"
    output: "LeakyRelu_1"
    op_type: "LeakyRelu"
    attribute {
      name: "alpha"
      f: 0.20000000298023224
      type: FLOAT
    }
  }
  node {
    input: "LeakyRelu_0"
    input: "LeakyRelu_1"
    output: "Concat_1"
    op_type: "Concat"
    attribute {
      name: "axis"
      i: 1
      type: INT
    }
  }
  node {
    input: "Concat_1"
    input: "Input_13"
    input: "Input_14"
    output: "Conv_5"
    op_type: "Conv"
    attribute {
      name: "dilations"
      ints: 1
      ints: 1
      type: INTS
    }
    attribute {
      name: "group"
      i: 1
      type: INT
    }
    attribute {
      name: "kernel_shape"
      ints: 3
      ints: 3
      type: INTS
    }
    attribute {
      name: "pads"
      ints: 1
      ints: 1
      ints: 1
      ints: 1
      type: INTS
    }
    attribute {
      name: "strides"
      ints: 1
      ints: 1
      type: INTS
    }
  }
  node {
    input: "Conv_5"
    output: "LeakyRelu_2"
    op_type: "LeakyRelu"
    attribute {
      name: "alpha"
      f: 0.20000000298023224
      type: FLOAT
    }
  }
  node {
    input: "LeakyRelu_0"
    input: "LeakyRelu_1"
    input: "LeakyRelu_2"
    output: "Concat_2"
    op_type: "Concat"
    attribute {
      name: "axis"
      i: 1
      type: INT
    }
  }
  node {
    input: "Concat_2"
    input: "Input_15"
    input: "Input_16"
    output: "Conv_6"
    op_type: "Conv"
    attribute {
      name: "dilations"
      ints: 1
      ints: 1
      type: INTS
    }
    attribute {
      name: "group"
      i: 1
      type: INT
    }
    attribute {
      name: "kernel_shape"
      ints: 3
      ints: 3
      type: INTS
    }
    attribute {
      name: "pads"
      ints: 1
      ints: 1
      ints: 1
      ints: 1
      type: INTS
    }
    attribute {
      name: "strides"
      ints: 1
      ints: 1
      type: INTS
    }
  }
  node {
    input: "Conv_6"
    output: "LeakyRelu_3"
    op_type: "LeakyRelu"
    attribute {
      name: "alpha"
      f: 0.20000000298023224
      type: FLOAT
    }
  }
  node {
    input: "LeakyRelu_0"
    input: "LeakyRelu_1"
    input: "LeakyRelu_2"
    input: "LeakyRelu_3"
    output: "Concat_3"
    op_type: "Concat"
    attribute {
      name: "axis"
      i: 1
      type: INT
    }
  }
  node {
    input: "Concat_3"
    input: "Input_17"
    input: "Input_18"
    output: "Conv_7"
    op_type: "Conv"
    attribute {
      name: "dilations"
      ints: 1
      ints: 1
      type: INTS
    }
    attribute {
      name: "group"
      i: 1
      type: INT
    }
    attribute {
      name: "kernel_shape"
      ints: 3
      ints: 3
      type: INTS
    }
    attribute {
      name: "pads"
      ints: 1
      ints: 1
      ints: 1
      ints: 1
      type: INTS
    }
    attribute {
      name: "strides"
      ints: 1
      ints: 1
      type: INTS
    }
  }
  node {
    input: "Conv_7"
    output: "LeakyRelu_4"
    op_type: "LeakyRelu"
    attribute {
      name: "alpha"
      f: 0.20000000298023224
      type: FLOAT
    }
  }
  node {
    input: "LeakyRelu_0"
    input: "LeakyRelu_1"
    input: "LeakyRelu_2"
    input: "LeakyRelu_3"
    input: "LeakyRelu_4"
    output: "Concat_4"
    op_type: "Concat"
    attribute {
      name: "axis"
      i: 1
      type: INT
    }
  }
  node {
    input: "Concat_4"
    input: "Input_19"
    input: "Input_20"
    output: "Conv_8"
    op_type: "Conv"
    attribute {
      name: "dilations"
      ints: 1
      ints: 1
      type: INTS
    }
    attribute {
      name: "group"
      i: 1
      type: INT
    }
    attribute {
      name: "kernel_shape"
      ints: 3
      ints: 3
      type: INTS
    }
    attribute {
      name: "pads"
      ints: 1
      ints: 1
      ints: 1
      ints: 1
      type: INTS
    }
    attribute {
      name: "strides"
      ints: 1
      ints: 1
      type: INTS
    }
  }
  node {
    input: "Conv_8"
    input: "Input_21"
    output: "Mul_0"
    op_type: "Mul"
  }
  node {
    input: "Mul_0"
    input: "LeakyRelu_0"
    output: "Add_0"
    op_type: "Add"
  }
  node {
    input: "Add_0"
    input: "Input_22"
    input: "Input_23"
    output: "Conv_9"
    op_type: "Conv"
    attribute {
      name: "dilations"
      ints: 1
      ints: 1
      type: INTS
    }
    attribute {
      name: "group"
      i: 1
      type: INT
    }
    attribute {
      name: "kernel_shape"
      ints: 3
      ints: 3
      type: INTS
    }
    attribute {
      name: "pads"
      ints: 1
      ints: 1
      ints: 1
      ints: 1
      type: INTS
    }
    attribute {
      name: "strides"
      ints: 1
      ints: 1
      type: INTS
    }
  }
  node {
    input: "Conv_9"
    output: "LeakyRelu_5"
    op_type: "LeakyRelu"
    attribute {
      name: "alpha"
      f: 0.20000000298023224
      type: FLOAT
    }
  }
  node {
    input: "Add_0"
    input: "LeakyRelu_5"
    output: "Concat_5"
    op_type: "Concat"
    attribute {
      name: "axis"
      i: 1
      type: INT
    }
  }
  node {
    input: "Concat_5"
    input: "Input_24"
    input: "Input_25"
    output: "Conv_10"
    op_type: "Conv"
    attribute {
      name: "dilations"
      ints: 1
      ints: 1
      type: INTS
    }
    attribute {
      name: "group"
      i: 1
      type: INT
    }
    attribute {
      name: "kernel_shape"
      ints: 3
      ints: 3
      type: INTS
    }
    attribute {
      name: "pads"
      ints: 1
      ints: 1
      ints: 1
      ints: 1
      type: INTS
    }
    attribute {
      name: "strides"
      ints: 1
      ints: 1
      type: INTS
    }
  }
  node {
    input: "Conv_10"
    output: "LeakyRelu_6"
    op_type: "LeakyRelu"
    attribute {
      name: "alpha"
      f: 0.20000000298023224
      type: FLOAT
    }
  }
  node {
    input: "Add_0"
    input: "LeakyRelu_5"
    input: "LeakyRelu_6"
    output: "Concat_6"
    op_type: "Concat"
    attribute {
      name: "axis"
      i: 1
      type: INT
    }
  }
  node {
    input: "Concat_6"
    input: "Input_26"
    input: "Input_27"
    output: "Conv_11"
    op_type: "Conv"
    attribute {
      name: "dilations"
      ints: 1
      ints: 1
      type: INTS
    }
    attribute {
      name: "group"
      i: 1
      type: INT
    }
    attribute {
      name: "kernel_shape"
      ints: 3
      ints: 3
      type: INTS
    }
    attribute {
      name: "pads"
      ints: 1
      ints: 1
      ints: 1
      ints: 1
      type: INTS
    }
    attribute {
      name: "strides"
      ints: 1
      ints: 1
      type: INTS
    }
  }
  node {
    input: "Conv_11"
    output: "LeakyRelu_7"
    op_type: "LeakyRelu"
    attribute {
      name: "alpha"
      f: 0.20000000298023224
      type: FLOAT
    }
  }
  node {
    input: "Add_0"
    input: "LeakyRelu_5"
    input: "LeakyRelu_6"
    input: "LeakyRelu_7"
    output: "Concat_7"
    op_type: "Concat"
    attribute {
      name: "axis"
      i: 1
      type: INT
    }
  }
  node {
    input: "Concat_7"
    input: "Input_28"
    input: "Input_29"
    output: "Conv_12"
    op_type: "Conv"
    attribute {
      name: "dilations"
      ints: 1
      ints: 1
      type: INTS
    }
    attribute {
      name: "group"
      i: 1
      type: INT
    }
    attribute {
      name: "kernel_shape"
      ints: 3
      ints: 3
      type: INTS
    }
    attribute {
      name: "pads"
      ints: 1
      ints: 1
      ints: 1
      ints: 1
      type: INTS
    }
    attribute {
      name: "strides"
      ints: 1
      ints: 1
      type: INTS
    }
  }
  node {
    input: "Conv_12"
    output: "LeakyRelu_8"
    op_type: "LeakyRelu"
    attribute {
      name: "alpha"
      f: 0.20000000298023224
      type: FLOAT
    }
  }
  node {
    input: "Add_0"
    input: "LeakyRelu_5"
    input: "LeakyRelu_6"
    input: "LeakyRelu_7"
    input: "LeakyRelu_8"
    output: "Concat_8"
    op_type: "Concat"
    attribute {
      name: "axis"
      i: 1
      type: INT
    }
  }
  node {
    input: "Concat_8"
    input: "Input_30"
    input: "Input_31"
    output: "Conv_13"
    op_type: "Conv"
    attribute {
      name: "dilations"
      ints: 1
      ints: 1
      type: INTS
    }
    attribute {
      name: "group"
      i: 1
      type: INT
    }
    attribute {
      name: "kernel_shape"
      ints: 3
      ints: 3
      type: INTS
    }
    attribute {
      name: "pads"
      ints: 1
      ints: 1
      ints: 1
      ints: 1
      type: INTS
    }
    attribute {
      name: "strides"
      ints: 1
      ints: 1
      type: INTS
    }
  }
  node {
    input: "Conv_13"
    input: "Input_32"
    output: "Mul_1"
    op_type: "Mul"
  }
  node {
    input: "Mul_1"
    input: "Add_0"
    output: "Add_1"
    op_type: "Add"
  }
  node {
    input: "Add_1"
    input: "Input_33"
    input: "Input_34"
    output: "Conv_14"
    op_type: "Conv"
    attribute {
      name: "dilations"
      ints: 1
      ints: 1
      type: INTS
    }
    attribute {
      name: "group"
      i: 1
      type: INT
    }
    attribute {
      name: "kernel_shape"
      ints: 3
      ints: 3
      type: INTS
    }
    attribute {
      name: "pads"
      ints: 1
      ints: 1
      ints: 1
      ints: 1
      type: INTS
    }
    attribute {
      name: "strides"
      ints: 1
      ints: 1
      type: INTS
    }
  }
  node {
    input: "Conv_14"
    output: "LeakyRelu_9"
    op_type: "LeakyRelu"
    attribute {
      name: "alpha"
      f: 0.20000000298023224
      type: FLOAT
    }
  }
  node {
    input: "Add_1"
    input: "LeakyRelu_9"
    output: "Concat_9"
    op_type: "Concat"
    attribute {
      name: "axis"
      i: 1
      type: INT
    }
  }
  node {
    input: "Concat_9"
    input: "Input_35"
    input: "Input_36"
    output: "Conv_15"
    op_type: "Conv"
    attribute {
      name: "dilations"
      ints: 1
      ints: 1
      type: INTS
    }
    attribute {
      name: "group"
      i: 1
      type: INT
    }
    attribute {
      name: "kernel_shape"
      ints: 3
      ints: 3
      type: INTS
    }
    attribute {
      name: "pads"
      ints: 1
      ints: 1
      ints: 1
      ints: 1
      type: INTS
    }
    attribute {
      name: "strides"
      ints: 1
      ints: 1
      type: INTS
    }
  }
  node {
    input: "Conv_15"
    output: "LeakyRelu_10"
    op_type: "LeakyRelu"
    attribute {
      name: "alpha"
      f: 0.20000000298023224
      type: FLOAT
    }
  }
  node {
    input: "Add_1"
    input: "LeakyRelu_9"
    input: "LeakyRelu_10"
    output: "Concat_10"
    op_type: "Concat"
    attribute {
      name: "axis"
      i: 1
      type: INT
    }
  }
  node {
    input: "Concat_10"
    input: "Input_37"
    input: "Input_38"
    output: "Conv_16"
    op_type: "Conv"
    attribute {
      name: "dilations"
      ints: 1
      ints: 1
      type: INTS
    }
    attribute {
      name: "group"
      i: 1
      type: INT
    }
    attribute {
      name: "kernel_shape"
      ints: 3
      ints: 3
      type: INTS
    }
    attribute {
      name: "pads"
      ints: 1
      ints: 1
      ints: 1
      ints: 1
      type: INTS
    }
    attribute {
      name: "strides"
      ints: 1
      ints: 1
      type: INTS
    }
  }
  node {
    input: "Conv_16"
    output: "LeakyRelu_11"
    op_type: "LeakyRelu"
    attribute {
      name: "alpha"
      f: 0.20000000298023224
      type: FLOAT
    }
  }
  node {
    input: "Add_1"
    input: "LeakyRelu_9"
    input: "LeakyRelu_10"
    input: "LeakyRelu_11"
    output: "Concat_11"
    op_type: "Concat"
    attribute {
      name: "axis"
      i: 1
      type: INT
    }
  }
  node {
    input: "Concat_11"
    input: "Input_39"
    input: "Input_40"
    output: "Conv_17"
    op_type: "Conv"
    attribute {
      name: "dilations"
      ints: 1
      ints: 1
      type: INTS
    }
    attribute {
      name: "group"
      i: 1
      type: INT
    }
    attribute {
      name: "kernel_shape"
      ints: 3
      ints: 3
      type: INTS
    }
    attribute {
      name: "pads"
      ints: 1
      ints: 1
      ints: 1
      ints: 1
      type: INTS
    }
    attribute {
      name: "strides"
      ints: 1
      ints: 1
      type: INTS
    }
  }
  node {
    input: "Conv_17"
    output: "LeakyRelu_12"
    op_type: "LeakyRelu"
    attribute {
      name: "alpha"
      f: 0.20000000298023224
      type: FLOAT
    }
  }
  node {
    input: "Add_1"
    input: "LeakyRelu_9"
    input: "LeakyRelu_10"
    input: "LeakyRelu_11"
    input: "LeakyRelu_12"
    output: "Concat_12"
    op_type: "Concat"
    attribute {
      name: "axis"
      i: 1
      type: INT
    }
  }
  node {
    input: "Concat_12"
    input: "Input_41"
    input: "Input_42"
    output: "Conv_18"
    op_type: "Conv"
    attribute {
      name: "dilations"
      ints: 1
      ints: 1
      type: INTS
    }
    attribute {
      name: "group"
      i: 1
      type: INT
    }
    attribute {
      name: "kernel_shape"
      ints: 3
      ints: 3
      type: INTS
    }
    attribute {
      name: "pads"
      ints: 1
      ints: 1
      ints: 1
      ints: 1
      type: INTS
    }
    attribute {
      name: "strides"
      ints: 1
      ints: 1
      type: INTS
    }
  }
  node {
    input: "Conv_18"
    input: "Input_43"
    output: "Mul_2"
    op_type: "Mul"
  }
  node {
    input: "Mul_2"
    input: "Add_1"
    output: "Add_2"
    op_type: "Add"
  }
  node {
    input: "LeakyRelu_0"
    input: "Add_2"
    output: "Add_3"
    op_type: "Add"
  }
  node {
    input: "Add_3"
    input: "Input_44"
    input: "Input_45"
    output: "Conv_19"
    op_type: "Conv"
    attribute {
      name: "dilations"
      ints: 1
      ints: 1
      type: INTS
    }
    attribute {
      name: "group"
      i: 1
      type: INT
    }
    attribute {
      name: "kernel_shape"
      ints: 3
      ints: 3
      type: INTS
    }
    attribute {
      name: "pads"
      ints: 1
      ints: 1
      ints: 1
      ints: 1
      type: INTS
    }
    attribute {
      name: "strides"
      ints: 1
      ints: 1
      type: INTS
    }
  }
  node {
    input: "Conv_19"
    output: "LeakyRelu_13"
    op_type: "LeakyRelu"
    attribute {
      name: "alpha"
      f: 0.20000000298023224
      type: FLOAT
    }
  }
  node {
    input: "Add_3"
    input: "LeakyRelu_13"
    output: "Concat_13"
    op_type: "Concat"
    attribute {
      name: "axis"
      i: 1
      type: INT
    }
  }
  node {
    input: "Concat_13"
    input: "Input_46"
    input: "Input_47"
    output: "Conv_20"
    op_type: "Conv"
    attribute {
      name: "dilations"
      ints: 1
      ints: 1
      type: INTS
    }
    attribute {
      name: "group"
      i: 1
      type: INT
    }
    attribute {
      name: "kernel_shape"
      ints: 3
      ints: 3
      type: INTS
    }
    attribute {
      name: "pads"
      ints: 1
      ints: 1
      ints: 1
      ints: 1
      type: INTS
    }
    attribute {
      name: "strides"
      ints: 1
      ints: 1
      type: INTS
    }
  }
  node {
    input: "Conv_20"
    output: "LeakyRelu_14"
    op_type: "LeakyRelu"
    attribute {
      name: "alpha"
      f: 0.20000000298023224
      type: FLOAT
    }
  }
  node {
    input: "Add_3"
    input: "LeakyRelu_13"
    input: "LeakyRelu_14"
    output: "Concat_14"
    op_type: "Concat"
    attribute {
      name: "axis"
      i: 1
      type: INT
    }
  }
  node {
    input: "Concat_14"
    input: "Input_48"
    input: "Input_49"
    output: "Conv_21"
    op_type: "Conv"
    attribute {
      name: "dilations"
      ints: 1
      ints: 1
      type: INTS
    }
    attribute {
      name: "group"
      i: 1
      type: INT
    }
    attribute {
      name: "kernel_shape"
      ints: 3
      ints: 3
      type: INTS
    }
    attribute {
      name: "pads"
      ints: 1
      ints: 1
      ints: 1
      ints: 1
      type: INTS
    }
    attribute {
      name: "strides"
      ints: 1
      ints: 1
      type: INTS
    }
  }
  node {
    input: "Conv_21"
    output: "LeakyRelu_15"
    op_type: "LeakyRelu"
    attribute {
      name: "alpha"
      f: 0.20000000298023224
      type: FLOAT
    }
  }
  node {
    input: "Add_3"
    input: "LeakyRelu_13"
    input: "LeakyRelu_14"
    input: "LeakyRelu_15"
    output: "Concat_15"
    op_type: "Concat"
    attribute {
      name: "axis"
      i: 1
      type: INT
    }
  }
  node {
    input: "Concat_15"
    input: "Input_50"
    input: "Input_51"
    output: "Conv_22"
    op_type: "Conv"
    attribute {
      name: "dilations"
      ints: 1
      ints: 1
      type: INTS
    }
    attribute {
      name: "group"
      i: 1
      type: INT
    }
    attribute {
      name: "kernel_shape"
      ints: 3
      ints: 3
      type: INTS
    }
    attribute {
      name: "pads"
      ints: 1
      ints: 1
      ints: 1
      ints: 1
      type: INTS
    }
    attribute {
      name: "strides"
      ints: 1
      ints: 1
      type: INTS
    }
  }
  node {
    input: "Conv_22"
    output: "LeakyRelu_16"
    op_type: "LeakyRelu"
    attribute {
      name: "alpha"
      f: 0.20000000298023224
      type: FLOAT
    }
  }
  node {
    input: "Add_3"
    input: "LeakyRelu_13"
    input: "LeakyRelu_14"
    input: "LeakyRelu_15"
    input: "LeakyRelu_16"
    output: "Concat_16"
    op_type: "Concat"
    attribute {
      name: "axis"
      i: 1
      type: INT
    }
  }
  node {
    input: "Concat_16"
    input: "Input_52"
    input: "Input_53"
    output: "Conv_23"
    op_type: "Conv"
    attribute {
      name: "dilations"
      ints: 1
      ints: 1
      type: INTS
    }
    attribute {
      name: "group"
      i: 1
      type: INT
    }
    attribute {
      name: "kernel_shape"
      ints: 3
      ints: 3
      type: INTS
    }
    attribute {
      name: "pads"
      ints: 1
      ints: 1
      ints: 1
      ints: 1
      type: INTS
    }
    attribute {
      name: "strides"
      ints: 1
      ints: 1
      type: INTS
    }
  }
  node {
    input: "Conv_23"
    input: "Input_54"
    output: "Mul_3"
    op_type: "Mul"
  }
  node {
    input: "Mul_3"
    input: "Add_3"
    output: "Add_4"
    op_type: "Add"
  }
  node {
    input: "Add_4"
    input: "Input_55"
    input: "Input_56"
    output: "Conv_24"
    op_type: "Conv"
    attribute {
      name: "dilations"
      ints: 1
      ints: 1
      type: INTS
    }
    attribute {
      name: "group"
      i: 1
      type: INT
    }
    attribute {
      name: "kernel_shape"
      ints: 3
      ints: 3
      type: INTS
    }
    attribute {
      name: "pads"
      ints: 1
      ints: 1
      ints: 1
      ints: 1
      type: INTS
    }
    attribute {
      name: "strides"
      ints: 1
      ints: 1
      type: INTS
    }
  }
  node {
    input: "Conv_24"
    output: "LeakyRelu_17"
    op_type: "LeakyRelu"
    attribute {
      name: "alpha"
      f: 0.20000000298023224
      type: FLOAT
    }
  }
  node {
    input: "Add_4"
    input: "LeakyRelu_17"
    output: "Concat_17"
    op_type: "Concat"
    attribute {
      name: "axis"
      i: 1
      type: INT
    }
  }
  node {
    input: "Concat_17"
    input: "Input_57"
    input: "Input_58"
    output: "Conv_25"
    op_type: "Conv"
    attribute {
      name: "dilations"
      ints: 1
      ints: 1
      type: INTS
    }
    attribute {
      name: "group"
      i: 1
      type: INT
    }
    attribute {
      name: "kernel_shape"
      ints: 3
      ints: 3
      type: INTS
    }
    attribute {
      name: "pads"
      ints: 1
      ints: 1
      ints: 1
      ints: 1
      type: INTS
    }
    attribute {
      name: "strides"
      ints: 1
      ints: 1
      type: INTS
    }
  }
  node {
    input: "Conv_25"
    output: "LeakyRelu_18"
    op_type: "LeakyRelu"
    attribute {
      name: "alpha"
      f: 0.20000000298023224
      type: FLOAT
    }
  }
  node {
    input: "Add_4"
    input: "LeakyRelu_17"
    input: "LeakyRelu_18"
    output: "Concat_18"
    op_type: "Concat"
    attribute {
      name: "axis"
      i: 1
      type: INT
    }
  }
  node {
    input: "Concat_18"
    input: "Input_59"
    input: "Input_60"
    output: "Conv_26"
    op_type: "Conv"
    attribute {
      name: "dilations"
      ints: 1
      ints: 1
      type: INTS
    }
    attribute {
      name: "group"
      i: 1
      type: INT
    }
    attribute {
      name: "kernel_shape"
      ints: 3
      ints: 3
      type: INTS
    }
    attribute {
      name: "pads"
      ints: 1
      ints: 1
      ints: 1
      ints: 1
      type: INTS
    }
    attribute {
      name: "strides"
      ints: 1
      ints: 1
      type: INTS
    }
  }
  node {
    input: "Conv_26"
    output: "LeakyRelu_19"
    op_type: "LeakyRelu"
    attribute {
      name: "alpha"
      f: 0.20000000298023224
      type: FLOAT
    }
  }
  node {
    input: "Add_4"
    input: "LeakyRelu_17"
    input: "LeakyRelu_18"
    input: "LeakyRelu_19"
    output: "Concat_19"
    op_type: "Concat"
    attribute {
      name: "axis"
      i: 1
      type: INT
    }
  }
  node {
    input: "Concat_19"
    input: "Input_61"
    input: "Input_62"
    output: "Conv_27"
    op_type: "Conv"
    attribute {
      name: "dilations"
      ints: 1
      ints: 1
      type: INTS
    }
    attribute {
      name: "group"
      i: 1
      type: INT
    }
    attribute {
      name: "kernel_shape"
      ints: 3
      ints: 3
      type: INTS
    }
    attribute {
      name: "pads"
      ints: 1
      ints: 1
      ints: 1
      ints: 1
      type: INTS
    }
    attribute {
      name: "strides"
      ints: 1
      ints: 1
      type: INTS
    }
  }
  node {
    input: "Conv_27"
    output: "LeakyRelu_20"
    op_type: "LeakyRelu"
    attribute {
      name: "alpha"
      f: 0.20000000298023224
      type: FLOAT
    }
  }
  node {
    input: "Add_4"
    input: "LeakyRelu_17"
    input: "LeakyRelu_18"
    input: "LeakyRelu_19"
    input: "LeakyRelu_20"
    output: "Concat_20"
    op_type: "Concat"
    attribute {
      name: "axis"
      i: 1
      type: INT
    }
  }
  node {
    input: "Concat_20"
    input: "Input_63"
    input: "Input_64"
    output: "Conv_28"
    op_type: "Conv"
    attribute {
      name: "dilations"
      ints: 1
      ints: 1
      type: INTS
    }
    attribute {
      name: "group"
      i: 1
      type: INT
    }
    attribute {
      name: "kernel_shape"
      ints: 3
      ints: 3
      type: INTS
    }
    attribute {
      name: "pads"
      ints: 1
      ints: 1
      ints: 1
      ints: 1
      type: INTS
    }
    attribute {
      name: "strides"
      ints: 1
      ints: 1
      type: INTS
    }
  }
  node {
    input: "Conv_28"
    input: "Input_65"
    output: "Mul_4"
    op_type: "Mul"
  }
  node {
    input: "Mul_4"
    input: "Add_4"
    output: "Add_5"
    op_type: "Add"
  }
  node {
    input: "Add_5"
    input: "Input_66"
    input: "Input_67"
    output: "Conv_29"
    op_type: "Conv"
    attribute {
      name: "dilations"
      ints: 1
      ints: 1
      type: INTS
    }
    attribute {
      name: "group"
      i: 1
      type: INT
    }
    attribute {
      name: "kernel_shape"
      ints: 3
      ints: 3
      type: INTS
    }
    attribute {
      name: "pads"
      ints: 1
      ints: 1
      ints: 1
      ints: 1
      type: INTS
    }
    attribute {
      name: "strides"
      ints: 1
      ints: 1
      type: INTS
    }
  }
  node {
    input: "Conv_29"
    output: "LeakyRelu_21"
    op_type: "LeakyRelu"
    attribute {
      name: "alpha"
      f: 0.20000000298023224
      type: FLOAT
    }
  }
  node {
    input: "Add_5"
    input: "LeakyRelu_21"
    output: "Concat_21"
    op_type: "Concat"
    attribute {
      name: "axis"
      i: 1
      type: INT
    }
  }
  node {
    input: "Concat_21"
    input: "Input_68"
    input: "Input_69"
    output: "Conv_30"
    op_type: "Conv"
    attribute {
      name: "dilations"
      ints: 1
      ints: 1
      type: INTS
    }
    attribute {
      name: "group"
      i: 1
      type: INT
    }
    attribute {
      name: "kernel_shape"
      ints: 3
      ints: 3
      type: INTS
    }
    attribute {
      name: "pads"
      ints: 1
      ints: 1
      ints: 1
      ints: 1
      type: INTS
    }
    attribute {
      name: "strides"
      ints: 1
      ints: 1
      type: INTS
    }
  }
  node {
    input: "Conv_30"
    output: "LeakyRelu_22"
    op_type: "LeakyRelu"
    attribute {
      name: "alpha"
      f: 0.20000000298023224
      type: FLOAT
    }
  }
  node {
    input: "Add_5"
    input: "LeakyRelu_21"
    input: "LeakyRelu_22"
    output: "Concat_22"
    op_type: "Concat"
    attribute {
      name: "axis"
      i: 1
      type: INT
    }
  }
  node {
    input: "Concat_22"
    input: "Input_70"
    input: "Input_71"
    output: "Conv_31"
    op_type: "Conv"
    attribute {
      name: "dilations"
      ints: 1
      ints: 1
      type: INTS
    }
    attribute {
      name: "group"
      i: 1
      type: INT
    }
    attribute {
      name: "kernel_shape"
      ints: 3
      ints: 3
      type: INTS
    }
    attribute {
      name: "pads"
      ints: 1
      ints: 1
      ints: 1
      ints: 1
      type: INTS
    }
    attribute {
      name: "strides"
      ints: 1
      ints: 1
      type: INTS
    }
  }
  node {
    input: "Conv_31"
    output: "LeakyRelu_23"
    op_type: "LeakyRelu"
    attribute {
      name: "alpha"
      f: 0.20000000298023224
      type: FLOAT
    }
  }
  node {
    input: "Add_5"
    input: "LeakyRelu_21"
    input: "LeakyRelu_22"
    input: "LeakyRelu_23"
    output: "Concat_23"
    op_type: "Concat"
    attribute {
      name: "axis"
      i: 1
      type: INT
    }
  }
  node {
    input: "Concat_23"
    input: "Input_72"
    input: "Input_73"
    output: "Conv_32"
    op_type: "Conv"
    attribute {
      name: "dilations"
      ints: 1
      ints: 1
      type: INTS
    }
    attribute {
      name: "group"
      i: 1
      type: INT
    }
    attribute {
      name: "kernel_shape"
      ints: 3
      ints: 3
      type: INTS
    }
    attribute {
      name: "pads"
      ints: 1
      ints: 1
      ints: 1
      ints: 1
      type: INTS
    }
    attribute {
      name: "strides"
      ints: 1
      ints: 1
      type: INTS
    }
  }
  node {
    input: "Conv_32"
    output: "LeakyRelu_24"
    op_type: "LeakyRelu"
    attribute {
      name: "alpha"
      f: 0.20000000298023224
      type: FLOAT
    }
  }
  node {
    input: "Add_5"
    input: "LeakyRelu_21"
    input: "LeakyRelu_22"
    input: "LeakyRelu_23"
    input: "LeakyRelu_24"
    output: "Concat_24"
    op_type: "Concat"
    attribute {
      name: "axis"
      i: 1
      type: INT
    }
  }
  node {
    input: "Concat_24"
    input: "Input_74"
    input: "Input_75"
    output: "Conv_33"
    op_type: "Conv"
    attribute {
      name: "dilations"
      ints: 1
      ints: 1
      type: INTS
    }
    attribute {
      name: "group"
      i: 1
      type: INT
    }
    attribute {
      name: "kernel_shape"
      ints: 3
      ints: 3
      type: INTS
    }
    attribute {
      name: "pads"
      ints: 1
      ints: 1
      ints: 1
      ints: 1
      type: INTS
    }
    attribute {
      name: "strides"
      ints: 1
      ints: 1
      type: INTS
    }
  }
  node {
    input: "Conv_33"
    input: "Input_76"
    output: "Mul_5"
    op_type: "Mul"
  }
  node {
    input: "Mul_5"
    input: "Add_5"
    output: "Add_6"
    op_type: "Add"
  }
  node {
    input: "Add_3"
    input: "Add_6"
    output: "Add_7"
    op_type: "Add"
  }
  node {
    input: "Add_7"
    input: "Input_77"
    input: "Input_78"
    output: "Conv_34"
    op_type: "Conv"
    attribute {
      name: "dilations"
      ints: 1
      ints: 1
      type: INTS
    }
    attribute {
      name: "group"
      i: 1
      type: INT
    }
    attribute {
      name: "kernel_shape"
      ints: 3
      ints: 3
      type: INTS
    }
    attribute {
      name: "pads"
      ints: 1
      ints: 1
      ints: 1
      ints: 1
      type: INTS
    }
    attribute {
      name: "strides"
      ints: 1
      ints: 1
      type: INTS
    }
  }
  node {
    input: "LeakyRelu_0"
    input: "Conv_34"
    output: "Add_8"
    op_type: "Add"
  }
  node {
    input: "Add_8"
    input: "Input_79"
    input: "Input_80"
    output: "Conv_35"
    op_type: "Conv"
    attribute {
      name: "dilations"
      ints: 1
      ints: 1
      type: INTS
    }
    attribute {
      name: "group"
      i: 1
      type: INT
    }
    attribute {
      name: "kernel_shape"
      ints: 3
      ints: 3
      type: INTS
    }
    attribute {
      name: "pads"
      ints: 1
      ints: 1
      ints: 1
      ints: 1
      type: INTS
    }
    attribute {
      name: "strides"
      ints: 1
      ints: 1
      type: INTS
    }
  }
  node {
    input: "Conv_35"
    output: "DepthToSpace_0"
    op_type: "DepthToSpace"
    attribute {
      name: "blocksize"
      i: 2
      type: INT
    }
  }
  node {
    input: "DepthToSpace_0"
    output: "LeakyRelu_25"
    op_type: "LeakyRelu"
    attribute {
      name: "alpha"
      f: 0.20000000298023224
      type: FLOAT
    }
  }
  node {
    input: "LeakyRelu_25"
    input: "Input_81"
    input: "Input_82"
    output: "Conv_36"
    op_type: "Conv"
    attribute {
      name: "dilations"
      ints: 1
      ints: 1
      type: INTS
    }
    attribute {
      name: "group"
      i: 1
      type: INT
    }
    attribute {
      name: "kernel_shape"
      ints: 3
      ints: 3
      type: INTS
    }
    attribute {
      name: "pads"
      ints: 1
      ints: 1
      ints: 1
      ints: 1
      type: INTS
    }
    attribute {
      name: "strides"
      ints: 1
      ints: 1
      type: INTS
    }
  }
  node {
    input: "Conv_36"
    output: "DepthToSpace_1"
    op_type: "DepthToSpace"
    attribute {
      name: "blocksize"
      i: 2
      type: INT
    }
  }
  node {
    input: "DepthToSpace_1"
    output: "LeakyRelu_26"
    op_type: "LeakyRelu"
    attribute {
      name: "alpha"
      f: 0.20000000298023224
      type: FLOAT
    }
  }
  node {
    input: "LeakyRelu_26"
    input: "Input_83"
    input: "Input_84"
    output: "Conv_37"
    op_type: "Conv"
    attribute {
      name: "dilations"
      ints: 1
      ints: 1
      type: INTS
    }
    attribute {
      name: "group"
      i: 1
      type: INT
    }
    attribute {
      name: "kernel_shape"
      ints: 9
      ints: 9
      type: INTS
    }
    attribute {
      name: "pads"
      ints: 4
      ints: 4
      ints: 4
      ints: 4
      type: INTS
    }
    attribute {
      name: "strides"
      ints: 1
      ints: 1
      type: INTS
    }
  }
  name: "Graph"
  input {
    name: "Input_4"
    type {
      tensor_type {
        elem_type: FLOAT
        shape {
          dim {
            dim_value: 32
          }
          dim {
            dim_value: 1
          }
          dim {
            dim_value: 30
          }
          dim {
            dim_value: 30
          }
        }
      }
    }
  }
  input {
    name: "Input_5"
    type {
      tensor_type {
        elem_type: FLOAT
        shape {
          dim {
            dim_value: 32
          }
        }
      }
    }
  }
  input {
    name: "Input_1"
    type {
      tensor_type {
        elem_type: FLOAT
        shape {
          dim {
            dim_value: 32
          }
          dim {
            dim_value: 1
          }
          dim {
            dim_value: 6
          }
          dim {
            dim_value: 6
          }
        }
      }
    }
  }
  input {
    name: "Input_2"
    type {
      tensor_type {
        elem_type: FLOAT
        shape {
          dim {
            dim_value: 32
          }
        }
      }
    }
  }
  input {
    name: "Input_7"
    type {
      tensor_type {
        elem_type: FLOAT
        shape {
          dim {
            dim_value: 32
          }
          dim {
            dim_value: 1
          }
          dim {
            dim_value: 3
          }
          dim {
            dim_value: 3
          }
        }
      }
    }
  }
  input {
    name: "Input_8"
    type {
      tensor_type {
        elem_type: FLOAT
        shape {
          dim {
            dim_value: 32
          }
        }
      }
    }
  }
  input {
    name: "Input_77"
    type {
      tensor_type {
        elem_type: FLOAT
        shape {
          dim {
            dim_value: 64
          }
          dim {
            dim_value: 64
          }
          dim {
            dim_value: 3
          }
          dim {
            dim_value: 3
          }
        }
      }
    }
  }
  input {
    name: "Input_78"
    type {
      tensor_type {
        elem_type: FLOAT
        shape {
          dim {
            dim_value: 64
          }
        }
      }
    }
  }
  input {
    name: "Input_83"
    type {
      tensor_type {
        elem_type: FLOAT
        shape {
          dim {
            dim_value: 1
          }
          dim {
            dim_value: 64
          }
          dim {
            dim_value: 9
          }
          dim {
            dim_value: 9
          }
        }
      }
    }
  }
  input {
    name: "Input_84"
    type {
      tensor_type {
        elem_type: FLOAT
        shape {
          dim {
            dim_value: 1
          }
        }
      }
    }
  }
  input {
    name: "Input_9"
    type {
      tensor_type {
        elem_type: FLOAT
        shape {
          dim {
            dim_value: 64
          }
          dim {
            dim_value: 96
          }
          dim {
            dim_value: 3
          }
          dim {
            dim_value: 3
          }
        }
      }
    }
  }
  input {
    name: "Input_10"
    type {
      tensor_type {
        elem_type: FLOAT
        shape {
          dim {
            dim_value: 64
          }
        }
      }
    }
  }
  input {
    name: "Input_79"
    type {
      tensor_type {
        elem_type: FLOAT
        shape {
          dim {
            dim_value: 256
          }
          dim {
            dim_value: 64
          }
          dim {
            dim_value: 3
          }
          dim {
            dim_value: 3
          }
        }
      }
    }
  }
  input {
    name: "Input_80"
    type {
      tensor_type {
        elem_type: FLOAT
        shape {
          dim {
            dim_value: 256
          }
        }
      }
    }
  }
  input {
    name: "Input_81"
    type {
      tensor_type {
        elem_type: FLOAT
        shape {
          dim {
            dim_value: 256
          }
          dim {
            dim_value: 64
          }
          dim {
            dim_value: 3
          }
          dim {
            dim_value: 3
          }
        }
      }
    }
  }
  input {
    name: "Input_82"
    type {
      tensor_type {
        elem_type: FLOAT
        shape {
          dim {
            dim_value: 256
          }
        }
      }
    }
  }
  input {
    name: "Input_11"
    type {
      tensor_type {
        elem_type: FLOAT
        shape {
          dim {
            dim_value: 32
          }
          dim {
            dim_value: 64
          }
          dim {
            dim_value: 3
          }
          dim {
            dim_value: 3
          }
        }
      }
    }
  }
  input {
    name: "Input_12"
    type {
      tensor_type {
        elem_type: FLOAT
        shape {
          dim {
            dim_value: 32
          }
        }
      }
    }
  }
  input {
    name: "Input_13"
    type {
      tensor_type {
        elem_type: FLOAT
        shape {
          dim {
            dim_value: 32
          }
          dim {
            dim_value: 96
          }
          dim {
            dim_value: 3
          }
          dim {
            dim_value: 3
          }
        }
      }
    }
  }
  input {
    name: "Input_14"
    type {
      tensor_type {
        elem_type: FLOAT
        shape {
          dim {
            dim_value: 32
          }
        }
      }
    }
  }
  input {
    name: "Input_15"
    type {
      tensor_type {
        elem_type: FLOAT
        shape {
          dim {
            dim_value: 32
          }
          dim {
            dim_value: 128
          }
          dim {
            dim_value: 3
          }
          dim {
            dim_value: 3
          }
        }
      }
    }
  }
  input {
    name: "Input_16"
    type {
      tensor_type {
        elem_type: FLOAT
        shape {
          dim {
            dim_value: 32
          }
        }
      }
    }
  }
  input {
    name: "Input_17"
    type {
      tensor_type {
        elem_type: FLOAT
        shape {
          dim {
            dim_value: 32
          }
          dim {
            dim_value: 160
          }
          dim {
            dim_value: 3
          }
          dim {
            dim_value: 3
          }
        }
      }
    }
  }
  input {
    name: "Input_18"
    type {
      tensor_type {
        elem_type: FLOAT
        shape {
          dim {
            dim_value: 32
          }
        }
      }
    }
  }
  input {
    name: "Input_19"
    type {
      tensor_type {
        elem_type: FLOAT
        shape {
          dim {
            dim_value: 64
          }
          dim {
            dim_value: 192
          }
          dim {
            dim_value: 3
          }
          dim {
            dim_value: 3
          }
        }
      }
    }
  }
  input {
    name: "Input_20"
    type {
      tensor_type {
        elem_type: FLOAT
        shape {
          dim {
            dim_value: 64
          }
        }
      }
    }
  }
  input {
    name: "Input_22"
    type {
      tensor_type {
        elem_type: FLOAT
        shape {
          dim {
            dim_value: 32
          }
          dim {
            dim_value: 64
          }
          dim {
            dim_value: 3
          }
          dim {
            dim_value: 3
          }
        }
      }
    }
  }
  input {
    name: "Input_23"
    type {
      tensor_type {
        elem_type: FLOAT
        shape {
          dim {
            dim_value: 32
          }
        }
      }
    }
  }
  input {
    name: "Input_24"
    type {
      tensor_type {
        elem_type: FLOAT
        shape {
          dim {
            dim_value: 32
          }
          dim {
            dim_value: 96
          }
          dim {
            dim_value: 3
          }
          dim {
            dim_value: 3
          }
        }
      }
    }
  }
  input {
    name: "Input_25"
    type {
      tensor_type {
        elem_type: FLOAT
        shape {
          dim {
            dim_value: 32
          }
        }
      }
    }
  }
  input {
    name: "Input_26"
    type {
      tensor_type {
        elem_type: FLOAT
        shape {
          dim {
            dim_value: 32
          }
          dim {
            dim_value: 128
          }
          dim {
            dim_value: 3
          }
          dim {
            dim_value: 3
          }
        }
      }
    }
  }
  input {
    name: "Input_27"
    type {
      tensor_type {
        elem_type: FLOAT
        shape {
          dim {
            dim_value: 32
          }
        }
      }
    }
  }
  input {
    name: "Input_28"
    type {
      tensor_type {
        elem_type: FLOAT
        shape {
          dim {
            dim_value: 32
          }
          dim {
            dim_value: 160
          }
          dim {
            dim_value: 3
          }
          dim {
            dim_value: 3
          }
        }
      }
    }
  }
  input {
    name: "Input_29"
    type {
      tensor_type {
        elem_type: FLOAT
        shape {
          dim {
            dim_value: 32
          }
        }
      }
    }
  }
  input {
    name: "Input_30"
    type {
      tensor_type {
        elem_type: FLOAT
        shape {
          dim {
            dim_value: 64
          }
          dim {
            dim_value: 192
          }
          dim {
            dim_value: 3
          }
          dim {
            dim_value: 3
          }
        }
      }
    }
  }
  input {
    name: "Input_31"
    type {
      tensor_type {
        elem_type: FLOAT
        shape {
          dim {
            dim_value: 64
          }
        }
      }
    }
  }
  input {
    name: "Input_33"
    type {
      tensor_type {
        elem_type: FLOAT
        shape {
          dim {
            dim_value: 32
          }
          dim {
            dim_value: 64
          }
          dim {
            dim_value: 3
          }
          dim {
            dim_value: 3
          }
        }
      }
    }
  }
  input {
    name: "Input_34"
    type {
      tensor_type {
        elem_type: FLOAT
        shape {
          dim {
            dim_value: 32
          }
        }
      }
    }
  }
  input {
    name: "Input_35"
    type {
      tensor_type {
        elem_type: FLOAT
        shape {
          dim {
            dim_value: 32
          }
          dim {
            dim_value: 96
          }
          dim {
            dim_value: 3
          }
          dim {
            dim_value: 3
          }
        }
      }
    }
  }
  input {
    name: "Input_36"
    type {
      tensor_type {
        elem_type: FLOAT
        shape {
          dim {
            dim_value: 32
          }
        }
      }
    }
  }
  input {
    name: "Input_37"
    type {
      tensor_type {
        elem_type: FLOAT
        shape {
          dim {
            dim_value: 32
          }
          dim {
            dim_value: 128
          }
          dim {
            dim_value: 3
          }
          dim {
            dim_value: 3
          }
        }
      }
    }
  }
  input {
    name: "Input_38"
    type {
      tensor_type {
        elem_type: FLOAT
        shape {
          dim {
            dim_value: 32
          }
        }
      }
    }
  }
  input {
    name: "Input_39"
    type {
      tensor_type {
        elem_type: FLOAT
        shape {
          dim {
            dim_value: 32
          }
          dim {
            dim_value: 160
          }
          dim {
            dim_value: 3
          }
          dim {
            dim_value: 3
          }
        }
      }
    }
  }
  input {
    name: "Input_40"
    type {
      tensor_type {
        elem_type: FLOAT
        shape {
          dim {
            dim_value: 32
          }
        }
      }
    }
  }
  input {
    name: "Input_41"
    type {
      tensor_type {
        elem_type: FLOAT
        shape {
          dim {
            dim_value: 64
          }
          dim {
            dim_value: 192
          }
          dim {
            dim_value: 3
          }
          dim {
            dim_value: 3
          }
        }
      }
    }
  }
  input {
    name: "Input_42"
    type {
      tensor_type {
        elem_type: FLOAT
        shape {
          dim {
            dim_value: 64
          }
        }
      }
    }
  }
  input {
    name: "Input_44"
    type {
      tensor_type {
        elem_type: FLOAT
        shape {
          dim {
            dim_value: 32
          }
          dim {
            dim_value: 64
          }
          dim {
            dim_value: 3
          }
          dim {
            dim_value: 3
          }
        }
      }
    }
  }
  input {
    name: "Input_45"
    type {
      tensor_type {
        elem_type: FLOAT
        shape {
          dim {
            dim_value: 32
          }
        }
      }
    }
  }
  input {
    name: "Input_46"
    type {
      tensor_type {
        elem_type: FLOAT
        shape {
          dim {
            dim_value: 32
          }
          dim {
            dim_value: 96
          }
          dim {
            dim_value: 3
          }
          dim {
            dim_value: 3
          }
        }
      }
    }
  }
  input {
    name: "Input_47"
    type {
      tensor_type {
        elem_type: FLOAT
        shape {
          dim {
            dim_value: 32
          }
        }
      }
    }
  }
  input {
    name: "Input_48"
    type {
      tensor_type {
        elem_type: FLOAT
        shape {
          dim {
            dim_value: 32
          }
          dim {
            dim_value: 128
          }
          dim {
            dim_value: 3
          }
          dim {
            dim_value: 3
          }
        }
      }
    }
  }
  input {
    name: "Input_49"
    type {
      tensor_type {
        elem_type: FLOAT
        shape {
          dim {
            dim_value: 32
          }
        }
      }
    }
  }
  input {
    name: "Input_50"
    type {
      tensor_type {
        elem_type: FLOAT
        shape {
          dim {
            dim_value: 32
          }
          dim {
            dim_value: 160
          }
          dim {
            dim_value: 3
          }
          dim {
            dim_value: 3
          }
        }
      }
    }
  }
  input {
    name: "Input_51"
    type {
      tensor_type {
        elem_type: FLOAT
        shape {
          dim {
            dim_value: 32
          }
        }
      }
    }
  }
  input {
    name: "Input_52"
    type {
      tensor_type {
        elem_type: FLOAT
        shape {
          dim {
            dim_value: 64
          }
          dim {
            dim_value: 192
          }
          dim {
            dim_value: 3
          }
          dim {
            dim_value: 3
          }
        }
      }
    }
  }
  input {
    name: "Input_53"
    type {
      tensor_type {
        elem_type: FLOAT
        shape {
          dim {
            dim_value: 64
          }
        }
      }
    }
  }
  input {
    name: "Input_55"
    type {
      tensor_type {
        elem_type: FLOAT
        shape {
          dim {
            dim_value: 32
          }
          dim {
            dim_value: 64
          }
          dim {
            dim_value: 3
          }
          dim {
            dim_value: 3
          }
        }
      }
    }
  }
  input {
    name: "Input_56"
    type {
      tensor_type {
        elem_type: FLOAT
        shape {
          dim {
            dim_value: 32
          }
        }
      }
    }
  }
  input {
    name: "Input_57"
    type {
      tensor_type {
        elem_type: FLOAT
        shape {
          dim {
            dim_value: 32
          }
          dim {
            dim_value: 96
          }
          dim {
            dim_value: 3
          }
          dim {
            dim_value: 3
          }
        }
      }
    }
  }
  input {
    name: "Input_58"
    type {
      tensor_type {
        elem_type: FLOAT
        shape {
          dim {
            dim_value: 32
          }
        }
      }
    }
  }
  input {
    name: "Input_59"
    type {
      tensor_type {
        elem_type: FLOAT
        shape {
          dim {
            dim_value: 32
          }
          dim {
            dim_value: 128
          }
          dim {
            dim_value: 3
          }
          dim {
            dim_value: 3
          }
        }
      }
    }
  }
  input {
    name: "Input_60"
    type {
      tensor_type {
        elem_type: FLOAT
        shape {
          dim {
            dim_value: 32
          }
        }
      }
    }
  }
  input {
    name: "Input_61"
    type {
      tensor_type {
        elem_type: FLOAT
        shape {
          dim {
            dim_value: 32
          }
          dim {
            dim_value: 160
          }
          dim {
            dim_value: 3
          }
          dim {
            dim_value: 3
          }
        }
      }
    }
  }
  input {
    name: "Input_62"
    type {
      tensor_type {
        elem_type: FLOAT
        shape {
          dim {
            dim_value: 32
          }
        }
      }
    }
  }
  input {
    name: "Input_63"
    type {
      tensor_type {
        elem_type: FLOAT
        shape {
          dim {
            dim_value: 64
          }
          dim {
            dim_value: 192
          }
          dim {
            dim_value: 3
          }
          dim {
            dim_value: 3
          }
        }
      }
    }
  }
  input {
    name: "Input_64"
    type {
      tensor_type {
        elem_type: FLOAT
        shape {
          dim {
            dim_value: 64
          }
        }
      }
    }
  }
  input {
    name: "Input_66"
    type {
      tensor_type {
        elem_type: FLOAT
        shape {
          dim {
            dim_value: 32
          }
          dim {
            dim_value: 64
          }
          dim {
            dim_value: 3
          }
          dim {
            dim_value: 3
          }
        }
      }
    }
  }
  input {
    name: "Input_67"
    type {
      tensor_type {
        elem_type: FLOAT
        shape {
          dim {
            dim_value: 32
          }
        }
      }
    }
  }
  input {
    name: "Input_68"
    type {
      tensor_type {
        elem_type: FLOAT
        shape {
          dim {
            dim_value: 32
          }
          dim {
            dim_value: 96
          }
          dim {
            dim_value: 3
          }
          dim {
            dim_value: 3
          }
        }
      }
    }
  }
  input {
    name: "Input_69"
    type {
      tensor_type {
        elem_type: FLOAT
        shape {
          dim {
            dim_value: 32
          }
        }
      }
    }
  }
  input {
    name: "Input_70"
    type {
      tensor_type {
        elem_type: FLOAT
        shape {
          dim {
            dim_value: 32
          }
          dim {
            dim_value: 128
          }
          dim {
            dim_value: 3
          }
          dim {
            dim_value: 3
          }
        }
      }
    }
  }
  input {
    name: "Input_71"
    type {
      tensor_type {
        elem_type: FLOAT
        shape {
          dim {
            dim_value: 32
          }
        }
      }
    }
  }
  input {
    name: "Input_72"
    type {
      tensor_type {
        elem_type: FLOAT
        shape {
          dim {
            dim_value: 32
          }
          dim {
            dim_value: 160
          }
          dim {
            dim_value: 3
          }
          dim {
            dim_value: 3
          }
        }
      }
    }
  }
  input {
    name: "Input_73"
    type {
      tensor_type {
        elem_type: FLOAT
        shape {
          dim {
            dim_value: 32
          }
        }
      }
    }
  }
  input {
    name: "Input_74"
    type {
      tensor_type {
        elem_type: FLOAT
        shape {
          dim {
            dim_value: 64
          }
          dim {
            dim_value: 192
          }
          dim {
            dim_value: 3
          }
          dim {
            dim_value: 3
          }
        }
      }
    }
  }
  input {
    name: "Input_75"
    type {
      tensor_type {
        elem_type: FLOAT
        shape {
          dim {
            dim_value: 64
          }
        }
      }
    }
  }
  input {
    name: "Input_76"
    type {
      tensor_type {
        elem_type: FLOAT
        shape {
          dim {
            dim_value: 32
          }
          dim {
            dim_value: 64
          }
          dim {
            dim_value: 8
          }
          dim {
            dim_value: 8
          }
        }
      }
    }
  }
  input {
    name: "Input_65"
    type {
      tensor_type {
        elem_type: FLOAT
        shape {
          dim {
            dim_value: 32
          }
          dim {
            dim_value: 64
          }
          dim {
            dim_value: 8
          }
          dim {
            dim_value: 8
          }
        }
      }
    }
  }
  input {
    name: "Input_54"
    type {
      tensor_type {
        elem_type: FLOAT
        shape {
          dim {
            dim_value: 32
          }
          dim {
            dim_value: 64
          }
          dim {
            dim_value: 8
          }
          dim {
            dim_value: 8
          }
        }
      }
    }
  }
  input {
    name: "Input_43"
    type {
      tensor_type {
        elem_type: FLOAT
        shape {
          dim {
            dim_value: 32
          }
          dim {
            dim_value: 64
          }
          dim {
            dim_value: 8
          }
          dim {
            dim_value: 8
          }
        }
      }
    }
  }
  input {
    name: "Input_32"
    type {
      tensor_type {
        elem_type: FLOAT
        shape {
          dim {
            dim_value: 32
          }
          dim {
            dim_value: 64
          }
          dim {
            dim_value: 8
          }
          dim {
            dim_value: 8
          }
        }
      }
    }
  }
  input {
    name: "Input_21"
    type {
      tensor_type {
        elem_type: FLOAT
        shape {
          dim {
            dim_value: 32
          }
          dim {
            dim_value: 64
          }
          dim {
            dim_value: 8
          }
          dim {
            dim_value: 8
          }
        }
      }
    }
  }
  input {
    name: "Input_6"
    type {
      tensor_type {
        elem_type: FLOAT
        shape {
          dim {
            dim_value: 32
          }
          dim {
            dim_value: 1
          }
          dim {
            dim_value: 10
          }
          dim {
            dim_value: 10
          }
        }
      }
    }
  }
  input {
    name: "Input_3"
    type {
      tensor_type {
        elem_type: FLOAT
        shape {
          dim {
            dim_value: 32
          }
          dim {
            dim_value: 1
          }
          dim {
            dim_value: 100
          }
          dim {
            dim_value: 100
          }
        }
      }
    }
  }
  input {
    name: "Input_0"
    type {
      tensor_type {
        elem_type: FLOAT
        shape {
          dim {
            dim_value: 32
          }
          dim {
            dim_value: 1
          }
          dim {
            dim_value: 20
          }
          dim {
            dim_value: 20
          }
        }
      }
    }
  }
  output {
    name: "Conv_37"
    type {
      tensor_type {
        elem_type: FLOAT
        shape {
          dim {
            dim_value: 32
          }
          dim {
            dim_value: 1
          }
          dim {
            dim_value: 32
          }
          dim {
            dim_value: 32
          }
        }
      }
    }
  }
}
opset_import {
  domain: ""
  version: 8
}

