ir_version: 4
producer_name: "Chainer"
producer_version: "7.0.0b2"
graph {
  node {
    input: "Input_3"
    input: "param_input_block_conv_on_W3_W"
    input: "param_input_block_conv_on_W3_b"
    output: "Convolution2DFunction_0"
    name: "Convolution2DFunction_0"
    op_type: "Conv"
    attribute {
      name: "dilations"
      ints: 1
      ints: 1
      type: INTS
    }
    attribute {
      name: "group"
      i: 1
      type: INT
    }
    attribute {
      name: "kernel_shape"
      ints: 3
      ints: 3
      type: INTS
    }
    attribute {
      name: "pads"
      ints: 0
      ints: 0
      ints: 0
      ints: 0
      type: INTS
    }
    attribute {
      name: "strides"
      ints: 1
      ints: 1
      type: INTS
    }
  }
  node {
    input: "Input_2"
    input: "param_input_block_conv_on_W2_W"
    input: "param_input_block_conv_on_W2_b"
    output: "Convolution2DFunction_1"
    name: "Convolution2DFunction_1"
    op_type: "Conv"
    attribute {
      name: "dilations"
      ints: 1
      ints: 1
      type: INTS
    }
    attribute {
      name: "group"
      i: 1
      type: INT
    }
    attribute {
      name: "kernel_shape"
      ints: 6
      ints: 6
      type: INTS
    }
    attribute {
      name: "pads"
      ints: 0
      ints: 0
      ints: 0
      ints: 0
      type: INTS
    }
    attribute {
      name: "strides"
      ints: 2
      ints: 2
      type: INTS
    }
  }
  node {
    input: "Input_1"
    input: "param_input_block_conv_on_W1_W"
    input: "param_input_block_conv_on_W1_b"
    output: "Convolution2DFunction_2"
    name: "Convolution2DFunction_2"
    op_type: "Conv"
    attribute {
      name: "dilations"
      ints: 1
      ints: 1
      type: INTS
    }
    attribute {
      name: "group"
      i: 1
      type: INT
    }
    attribute {
      name: "kernel_shape"
      ints: 30
      ints: 30
      type: INTS
    }
    attribute {
      name: "pads"
      ints: 0
      ints: 0
      ints: 0
      ints: 0
      type: INTS
    }
    attribute {
      name: "strides"
      ints: 10
      ints: 10
      type: INTS
    }
  }
  node {
    input: "Input_0"
    input: "param_input_block_conv_on_X_W"
    input: "param_input_block_conv_on_X_b"
    output: "Convolution2DFunction_3"
    name: "Convolution2DFunction_3"
    op_type: "Conv"
    attribute {
      name: "dilations"
      ints: 1
      ints: 1
      type: INTS
    }
    attribute {
      name: "group"
      i: 1
      type: INT
    }
    attribute {
      name: "kernel_shape"
      ints: 3
      ints: 3
      type: INTS
    }
    attribute {
      name: "pads"
      ints: 0
      ints: 0
      ints: 0
      ints: 0
      type: INTS
    }
    attribute {
      name: "strides"
      ints: 1
      ints: 1
      type: INTS
    }
  }
  node {
    input: "Convolution2DFunction_3"
    input: "Convolution2DFunction_2"
    input: "Convolution2DFunction_1"
    input: "Convolution2DFunction_0"
    output: "Concat_0"
    name: "Concat_0"
    op_type: "Concat"
    attribute {
      name: "axis"
      i: 1
      type: INT
    }
  }
  node {
    input: "Concat_0"
    input: "param_pre_residual_conv_layer_W"
    input: "param_pre_residual_conv_layer_b"
    output: "Convolution2DFunction_4"
    name: "Convolution2DFunction_4"
    op_type: "Conv"
    attribute {
      name: "dilations"
      ints: 1
      ints: 1
      type: INTS
    }
    attribute {
      name: "group"
      i: 1
      type: INT
    }
    attribute {
      name: "kernel_shape"
      ints: 3
      ints: 3
      type: INTS
    }
    attribute {
      name: "pads"
      ints: 1
      ints: 1
      ints: 1
      ints: 1
      type: INTS
    }
    attribute {
      name: "strides"
      ints: 1
      ints: 1
      type: INTS
    }
  }
  node {
    input: "Convolution2DFunction_4"
    output: "LeakyReLU_0"
    name: "LeakyReLU_0"
    op_type: "LeakyRelu"
    attribute {
      name: "alpha"
      f: 0.20000000298023224
      type: FLOAT
    }
  }
  node {
    input: "LeakyReLU_0"
    input: "param_residual_network_0_residual_dense_block1_conv_layer1_W"
    input: "param_residual_network_0_residual_dense_block1_conv_layer1_b"
    output: "Convolution2DFunction_5"
    name: "Convolution2DFunction_5"
    op_type: "Conv"
    attribute {
      name: "dilations"
      ints: 1
      ints: 1
      type: INTS
    }
    attribute {
      name: "group"
      i: 1
      type: INT
    }
    attribute {
      name: "kernel_shape"
      ints: 3
      ints: 3
      type: INTS
    }
    attribute {
      name: "pads"
      ints: 1
      ints: 1
      ints: 1
      ints: 1
      type: INTS
    }
    attribute {
      name: "strides"
      ints: 1
      ints: 1
      type: INTS
    }
  }
  node {
    input: "Convolution2DFunction_5"
    output: "LeakyReLU_1"
    name: "LeakyReLU_1"
    op_type: "LeakyRelu"
    attribute {
      name: "alpha"
      f: 0.20000000298023224
      type: FLOAT
    }
  }
  node {
    input: "LeakyReLU_0"
    input: "LeakyReLU_1"
    output: "Concat_1"
    name: "Concat_1"
    op_type: "Concat"
    attribute {
      name: "axis"
      i: 1
      type: INT
    }
  }
  node {
    input: "Concat_1"
    input: "param_residual_network_0_residual_dense_block1_conv_layer2_W"
    input: "param_residual_network_0_residual_dense_block1_conv_layer2_b"
    output: "Convolution2DFunction_6"
    name: "Convolution2DFunction_6"
    op_type: "Conv"
    attribute {
      name: "dilations"
      ints: 1
      ints: 1
      type: INTS
    }
    attribute {
      name: "group"
      i: 1
      type: INT
    }
    attribute {
      name: "kernel_shape"
      ints: 3
      ints: 3
      type: INTS
    }
    attribute {
      name: "pads"
      ints: 1
      ints: 1
      ints: 1
      ints: 1
      type: INTS
    }
    attribute {
      name: "strides"
      ints: 1
      ints: 1
      type: INTS
    }
  }
  node {
    input: "Convolution2DFunction_6"
    output: "LeakyReLU_2"
    name: "LeakyReLU_2"
    op_type: "LeakyRelu"
    attribute {
      name: "alpha"
      f: 0.20000000298023224
      type: FLOAT
    }
  }
  node {
    input: "LeakyReLU_0"
    input: "LeakyReLU_1"
    input: "LeakyReLU_2"
    output: "Concat_2"
    name: "Concat_2"
    op_type: "Concat"
    attribute {
      name: "axis"
      i: 1
      type: INT
    }
  }
  node {
    input: "Concat_2"
    input: "param_residual_network_0_residual_dense_block1_conv_layer3_W"
    input: "param_residual_network_0_residual_dense_block1_conv_layer3_b"
    output: "Convolution2DFunction_7"
    name: "Convolution2DFunction_7"
    op_type: "Conv"
    attribute {
      name: "dilations"
      ints: 1
      ints: 1
      type: INTS
    }
    attribute {
      name: "group"
      i: 1
      type: INT
    }
    attribute {
      name: "kernel_shape"
      ints: 3
      ints: 3
      type: INTS
    }
    attribute {
      name: "pads"
      ints: 1
      ints: 1
      ints: 1
      ints: 1
      type: INTS
    }
    attribute {
      name: "strides"
      ints: 1
      ints: 1
      type: INTS
    }
  }
  node {
    input: "Convolution2DFunction_7"
    output: "LeakyReLU_3"
    name: "LeakyReLU_3"
    op_type: "LeakyRelu"
    attribute {
      name: "alpha"
      f: 0.20000000298023224
      type: FLOAT
    }
  }
  node {
    input: "LeakyReLU_0"
    input: "LeakyReLU_1"
    input: "LeakyReLU_2"
    input: "LeakyReLU_3"
    output: "Concat_3"
    name: "Concat_3"
    op_type: "Concat"
    attribute {
      name: "axis"
      i: 1
      type: INT
    }
  }
  node {
    input: "Concat_3"
    input: "param_residual_network_0_residual_dense_block1_conv_layer4_W"
    input: "param_residual_network_0_residual_dense_block1_conv_layer4_b"
    output: "Convolution2DFunction_8"
    name: "Convolution2DFunction_8"
    op_type: "Conv"
    attribute {
      name: "dilations"
      ints: 1
      ints: 1
      type: INTS
    }
    attribute {
      name: "group"
      i: 1
      type: INT
    }
    attribute {
      name: "kernel_shape"
      ints: 3
      ints: 3
      type: INTS
    }
    attribute {
      name: "pads"
      ints: 1
      ints: 1
      ints: 1
      ints: 1
      type: INTS
    }
    attribute {
      name: "strides"
      ints: 1
      ints: 1
      type: INTS
    }
  }
  node {
    input: "Convolution2DFunction_8"
    output: "LeakyReLU_4"
    name: "LeakyReLU_4"
    op_type: "LeakyRelu"
    attribute {
      name: "alpha"
      f: 0.20000000298023224
      type: FLOAT
    }
  }
  node {
    input: "LeakyReLU_0"
    input: "LeakyReLU_1"
    input: "LeakyReLU_2"
    input: "LeakyReLU_3"
    input: "LeakyReLU_4"
    output: "Concat_4"
    name: "Concat_4"
    op_type: "Concat"
    attribute {
      name: "axis"
      i: 1
      type: INT
    }
  }
  node {
    input: "Concat_4"
    input: "param_residual_network_0_residual_dense_block1_conv_layer5_W"
    input: "param_residual_network_0_residual_dense_block1_conv_layer5_b"
    output: "Convolution2DFunction_9"
    name: "Convolution2DFunction_9"
    op_type: "Conv"
    attribute {
      name: "dilations"
      ints: 1
      ints: 1
      type: INTS
    }
    attribute {
      name: "group"
      i: 1
      type: INT
    }
    attribute {
      name: "kernel_shape"
      ints: 3
      ints: 3
      type: INTS
    }
    attribute {
      name: "pads"
      ints: 1
      ints: 1
      ints: 1
      ints: 1
      type: INTS
    }
    attribute {
      name: "strides"
      ints: 1
      ints: 1
      type: INTS
    }
  }
  node {
    input: "Convolution2DFunction_9"
    input: "v791"
    output: "MulConstant_0"
    name: "MulConstant_0"
    op_type: "Mul"
  }
  node {
    input: "MulConstant_0"
    input: "LeakyReLU_0"
    output: "Add_0"
    name: "Add_0"
    op_type: "Add"
  }
  node {
    input: "Add_0"
    input: "param_residual_network_0_residual_dense_block2_conv_layer1_W"
    input: "param_residual_network_0_residual_dense_block2_conv_layer1_b"
    output: "Convolution2DFunction_10"
    name: "Convolution2DFunction_10"
    op_type: "Conv"
    attribute {
      name: "dilations"
      ints: 1
      ints: 1
      type: INTS
    }
    attribute {
      name: "group"
      i: 1
      type: INT
    }
    attribute {
      name: "kernel_shape"
      ints: 3
      ints: 3
      type: INTS
    }
    attribute {
      name: "pads"
      ints: 1
      ints: 1
      ints: 1
      ints: 1
      type: INTS
    }
    attribute {
      name: "strides"
      ints: 1
      ints: 1
      type: INTS
    }
  }
  node {
    input: "Convolution2DFunction_10"
    output: "LeakyReLU_5"
    name: "LeakyReLU_5"
    op_type: "LeakyRelu"
    attribute {
      name: "alpha"
      f: 0.20000000298023224
      type: FLOAT
    }
  }
  node {
    input: "Add_0"
    input: "LeakyReLU_5"
    output: "Concat_5"
    name: "Concat_5"
    op_type: "Concat"
    attribute {
      name: "axis"
      i: 1
      type: INT
    }
  }
  node {
    input: "Concat_5"
    input: "param_residual_network_0_residual_dense_block2_conv_layer2_W"
    input: "param_residual_network_0_residual_dense_block2_conv_layer2_b"
    output: "Convolution2DFunction_11"
    name: "Convolution2DFunction_11"
    op_type: "Conv"
    attribute {
      name: "dilations"
      ints: 1
      ints: 1
      type: INTS
    }
    attribute {
      name: "group"
      i: 1
      type: INT
    }
    attribute {
      name: "kernel_shape"
      ints: 3
      ints: 3
      type: INTS
    }
    attribute {
      name: "pads"
      ints: 1
      ints: 1
      ints: 1
      ints: 1
      type: INTS
    }
    attribute {
      name: "strides"
      ints: 1
      ints: 1
      type: INTS
    }
  }
  node {
    input: "Convolution2DFunction_11"
    output: "LeakyReLU_6"
    name: "LeakyReLU_6"
    op_type: "LeakyRelu"
    attribute {
      name: "alpha"
      f: 0.20000000298023224
      type: FLOAT
    }
  }
  node {
    input: "Add_0"
    input: "LeakyReLU_5"
    input: "LeakyReLU_6"
    output: "Concat_6"
    name: "Concat_6"
    op_type: "Concat"
    attribute {
      name: "axis"
      i: 1
      type: INT
    }
  }
  node {
    input: "Concat_6"
    input: "param_residual_network_0_residual_dense_block2_conv_layer3_W"
    input: "param_residual_network_0_residual_dense_block2_conv_layer3_b"
    output: "Convolution2DFunction_12"
    name: "Convolution2DFunction_12"
    op_type: "Conv"
    attribute {
      name: "dilations"
      ints: 1
      ints: 1
      type: INTS
    }
    attribute {
      name: "group"
      i: 1
      type: INT
    }
    attribute {
      name: "kernel_shape"
      ints: 3
      ints: 3
      type: INTS
    }
    attribute {
      name: "pads"
      ints: 1
      ints: 1
      ints: 1
      ints: 1
      type: INTS
    }
    attribute {
      name: "strides"
      ints: 1
      ints: 1
      type: INTS
    }
  }
  node {
    input: "Convolution2DFunction_12"
    output: "LeakyReLU_7"
    name: "LeakyReLU_7"
    op_type: "LeakyRelu"
    attribute {
      name: "alpha"
      f: 0.20000000298023224
      type: FLOAT
    }
  }
  node {
    input: "Add_0"
    input: "LeakyReLU_5"
    input: "LeakyReLU_6"
    input: "LeakyReLU_7"
    output: "Concat_7"
    name: "Concat_7"
    op_type: "Concat"
    attribute {
      name: "axis"
      i: 1
      type: INT
    }
  }
  node {
    input: "Concat_7"
    input: "param_residual_network_0_residual_dense_block2_conv_layer4_W"
    input: "param_residual_network_0_residual_dense_block2_conv_layer4_b"
    output: "Convolution2DFunction_13"
    name: "Convolution2DFunction_13"
    op_type: "Conv"
    attribute {
      name: "dilations"
      ints: 1
      ints: 1
      type: INTS
    }
    attribute {
      name: "group"
      i: 1
      type: INT
    }
    attribute {
      name: "kernel_shape"
      ints: 3
      ints: 3
      type: INTS
    }
    attribute {
      name: "pads"
      ints: 1
      ints: 1
      ints: 1
      ints: 1
      type: INTS
    }
    attribute {
      name: "strides"
      ints: 1
      ints: 1
      type: INTS
    }
  }
  node {
    input: "Convolution2DFunction_13"
    output: "LeakyReLU_8"
    name: "LeakyReLU_8"
    op_type: "LeakyRelu"
    attribute {
      name: "alpha"
      f: 0.20000000298023224
      type: FLOAT
    }
  }
  node {
    input: "Add_0"
    input: "LeakyReLU_5"
    input: "LeakyReLU_6"
    input: "LeakyReLU_7"
    input: "LeakyReLU_8"
    output: "Concat_8"
    name: "Concat_8"
    op_type: "Concat"
    attribute {
      name: "axis"
      i: 1
      type: INT
    }
  }
  node {
    input: "Concat_8"
    input: "param_residual_network_0_residual_dense_block2_conv_layer5_W"
    input: "param_residual_network_0_residual_dense_block2_conv_layer5_b"
    output: "Convolution2DFunction_14"
    name: "Convolution2DFunction_14"
    op_type: "Conv"
    attribute {
      name: "dilations"
      ints: 1
      ints: 1
      type: INTS
    }
    attribute {
      name: "group"
      i: 1
      type: INT
    }
    attribute {
      name: "kernel_shape"
      ints: 3
      ints: 3
      type: INTS
    }
    attribute {
      name: "pads"
      ints: 1
      ints: 1
      ints: 1
      ints: 1
      type: INTS
    }
    attribute {
      name: "strides"
      ints: 1
      ints: 1
      type: INTS
    }
  }
  node {
    input: "Convolution2DFunction_14"
    input: "v808"
    output: "MulConstant_1"
    name: "MulConstant_1"
    op_type: "Mul"
  }
  node {
    input: "MulConstant_1"
    input: "Add_0"
    output: "Add_1"
    name: "Add_1"
    op_type: "Add"
  }
  node {
    input: "Add_1"
    input: "param_residual_network_0_residual_dense_block3_conv_layer1_W"
    input: "param_residual_network_0_residual_dense_block3_conv_layer1_b"
    output: "Convolution2DFunction_15"
    name: "Convolution2DFunction_15"
    op_type: "Conv"
    attribute {
      name: "dilations"
      ints: 1
      ints: 1
      type: INTS
    }
    attribute {
      name: "group"
      i: 1
      type: INT
    }
    attribute {
      name: "kernel_shape"
      ints: 3
      ints: 3
      type: INTS
    }
    attribute {
      name: "pads"
      ints: 1
      ints: 1
      ints: 1
      ints: 1
      type: INTS
    }
    attribute {
      name: "strides"
      ints: 1
      ints: 1
      type: INTS
    }
  }
  node {
    input: "Convolution2DFunction_15"
    output: "LeakyReLU_9"
    name: "LeakyReLU_9"
    op_type: "LeakyRelu"
    attribute {
      name: "alpha"
      f: 0.20000000298023224
      type: FLOAT
    }
  }
  node {
    input: "Add_1"
    input: "LeakyReLU_9"
    output: "Concat_9"
    name: "Concat_9"
    op_type: "Concat"
    attribute {
      name: "axis"
      i: 1
      type: INT
    }
  }
  node {
    input: "Concat_9"
    input: "param_residual_network_0_residual_dense_block3_conv_layer2_W"
    input: "param_residual_network_0_residual_dense_block3_conv_layer2_b"
    output: "Convolution2DFunction_16"
    name: "Convolution2DFunction_16"
    op_type: "Conv"
    attribute {
      name: "dilations"
      ints: 1
      ints: 1
      type: INTS
    }
    attribute {
      name: "group"
      i: 1
      type: INT
    }
    attribute {
      name: "kernel_shape"
      ints: 3
      ints: 3
      type: INTS
    }
    attribute {
      name: "pads"
      ints: 1
      ints: 1
      ints: 1
      ints: 1
      type: INTS
    }
    attribute {
      name: "strides"
      ints: 1
      ints: 1
      type: INTS
    }
  }
  node {
    input: "Convolution2DFunction_16"
    output: "LeakyReLU_10"
    name: "LeakyReLU_10"
    op_type: "LeakyRelu"
    attribute {
      name: "alpha"
      f: 0.20000000298023224
      type: FLOAT
    }
  }
  node {
    input: "Add_1"
    input: "LeakyReLU_9"
    input: "LeakyReLU_10"
    output: "Concat_10"
    name: "Concat_10"
    op_type: "Concat"
    attribute {
      name: "axis"
      i: 1
      type: INT
    }
  }
  node {
    input: "Concat_10"
    input: "param_residual_network_0_residual_dense_block3_conv_layer3_W"
    input: "param_residual_network_0_residual_dense_block3_conv_layer3_b"
    output: "Convolution2DFunction_17"
    name: "Convolution2DFunction_17"
    op_type: "Conv"
    attribute {
      name: "dilations"
      ints: 1
      ints: 1
      type: INTS
    }
    attribute {
      name: "group"
      i: 1
      type: INT
    }
    attribute {
      name: "kernel_shape"
      ints: 3
      ints: 3
      type: INTS
    }
    attribute {
      name: "pads"
      ints: 1
      ints: 1
      ints: 1
      ints: 1
      type: INTS
    }
    attribute {
      name: "strides"
      ints: 1
      ints: 1
      type: INTS
    }
  }
  node {
    input: "Convolution2DFunction_17"
    output: "LeakyReLU_11"
    name: "LeakyReLU_11"
    op_type: "LeakyRelu"
    attribute {
      name: "alpha"
      f: 0.20000000298023224
      type: FLOAT
    }
  }
  node {
    input: "Add_1"
    input: "LeakyReLU_9"
    input: "LeakyReLU_10"
    input: "LeakyReLU_11"
    output: "Concat_11"
    name: "Concat_11"
    op_type: "Concat"
    attribute {
      name: "axis"
      i: 1
      type: INT
    }
  }
  node {
    input: "Concat_11"
    input: "param_residual_network_0_residual_dense_block3_conv_layer4_W"
    input: "param_residual_network_0_residual_dense_block3_conv_layer4_b"
    output: "Convolution2DFunction_18"
    name: "Convolution2DFunction_18"
    op_type: "Conv"
    attribute {
      name: "dilations"
      ints: 1
      ints: 1
      type: INTS
    }
    attribute {
      name: "group"
      i: 1
      type: INT
    }
    attribute {
      name: "kernel_shape"
      ints: 3
      ints: 3
      type: INTS
    }
    attribute {
      name: "pads"
      ints: 1
      ints: 1
      ints: 1
      ints: 1
      type: INTS
    }
    attribute {
      name: "strides"
      ints: 1
      ints: 1
      type: INTS
    }
  }
  node {
    input: "Convolution2DFunction_18"
    output: "LeakyReLU_12"
    name: "LeakyReLU_12"
    op_type: "LeakyRelu"
    attribute {
      name: "alpha"
      f: 0.20000000298023224
      type: FLOAT
    }
  }
  node {
    input: "Add_1"
    input: "LeakyReLU_9"
    input: "LeakyReLU_10"
    input: "LeakyReLU_11"
    input: "LeakyReLU_12"
    output: "Concat_12"
    name: "Concat_12"
    op_type: "Concat"
    attribute {
      name: "axis"
      i: 1
      type: INT
    }
  }
  node {
    input: "Concat_12"
    input: "param_residual_network_0_residual_dense_block3_conv_layer5_W"
    input: "param_residual_network_0_residual_dense_block3_conv_layer5_b"
    output: "Convolution2DFunction_19"
    name: "Convolution2DFunction_19"
    op_type: "Conv"
    attribute {
      name: "dilations"
      ints: 1
      ints: 1
      type: INTS
    }
    attribute {
      name: "group"
      i: 1
      type: INT
    }
    attribute {
      name: "kernel_shape"
      ints: 3
      ints: 3
      type: INTS
    }
    attribute {
      name: "pads"
      ints: 1
      ints: 1
      ints: 1
      ints: 1
      type: INTS
    }
    attribute {
      name: "strides"
      ints: 1
      ints: 1
      type: INTS
    }
  }
  node {
    input: "Convolution2DFunction_19"
    input: "v825"
    output: "MulConstant_2"
    name: "MulConstant_2"
    op_type: "Mul"
  }
  node {
    input: "MulConstant_2"
    input: "Add_1"
    output: "Add_2"
    name: "Add_2"
    op_type: "Add"
  }
  node {
    input: "Add_2"
    input: "v829"
    output: "MulConstant_3"
    name: "MulConstant_3"
    op_type: "Mul"
  }
  node {
    input: "MulConstant_3"
    input: "LeakyReLU_0"
    output: "Add_3"
    name: "Add_3"
    op_type: "Add"
  }
  node {
    input: "Add_3"
    input: "param_residual_network_11_residual_dense_block1_conv_layer1_W"
    input: "param_residual_network_11_residual_dense_block1_conv_layer1_b"
    output: "Convolution2DFunction_20"
    name: "Convolution2DFunction_20"
    op_type: "Conv"
    attribute {
      name: "dilations"
      ints: 1
      ints: 1
      type: INTS
    }
    attribute {
      name: "group"
      i: 1
      type: INT
    }
    attribute {
      name: "kernel_shape"
      ints: 3
      ints: 3
      type: INTS
    }
    attribute {
      name: "pads"
      ints: 1
      ints: 1
      ints: 1
      ints: 1
      type: INTS
    }
    attribute {
      name: "strides"
      ints: 1
      ints: 1
      type: INTS
    }
  }
  node {
    input: "Convolution2DFunction_20"
    output: "LeakyReLU_13"
    name: "LeakyReLU_13"
    op_type: "LeakyRelu"
    attribute {
      name: "alpha"
      f: 0.20000000298023224
      type: FLOAT
    }
  }
  node {
    input: "Add_3"
    input: "LeakyReLU_13"
    output: "Concat_13"
    name: "Concat_13"
    op_type: "Concat"
    attribute {
      name: "axis"
      i: 1
      type: INT
    }
  }
  node {
    input: "Concat_13"
    input: "param_residual_network_11_residual_dense_block1_conv_layer2_W"
    input: "param_residual_network_11_residual_dense_block1_conv_layer2_b"
    output: "Convolution2DFunction_21"
    name: "Convolution2DFunction_21"
    op_type: "Conv"
    attribute {
      name: "dilations"
      ints: 1
      ints: 1
      type: INTS
    }
    attribute {
      name: "group"
      i: 1
      type: INT
    }
    attribute {
      name: "kernel_shape"
      ints: 3
      ints: 3
      type: INTS
    }
    attribute {
      name: "pads"
      ints: 1
      ints: 1
      ints: 1
      ints: 1
      type: INTS
    }
    attribute {
      name: "strides"
      ints: 1
      ints: 1
      type: INTS
    }
  }
  node {
    input: "Convolution2DFunction_21"
    output: "LeakyReLU_14"
    name: "LeakyReLU_14"
    op_type: "LeakyRelu"
    attribute {
      name: "alpha"
      f: 0.20000000298023224
      type: FLOAT
    }
  }
  node {
    input: "Add_3"
    input: "LeakyReLU_13"
    input: "LeakyReLU_14"
    output: "Concat_14"
    name: "Concat_14"
    op_type: "Concat"
    attribute {
      name: "axis"
      i: 1
      type: INT
    }
  }
  node {
    input: "Concat_14"
    input: "param_residual_network_11_residual_dense_block1_conv_layer3_W"
    input: "param_residual_network_11_residual_dense_block1_conv_layer3_b"
    output: "Convolution2DFunction_22"
    name: "Convolution2DFunction_22"
    op_type: "Conv"
    attribute {
      name: "dilations"
      ints: 1
      ints: 1
      type: INTS
    }
    attribute {
      name: "group"
      i: 1
      type: INT
    }
    attribute {
      name: "kernel_shape"
      ints: 3
      ints: 3
      type: INTS
    }
    attribute {
      name: "pads"
      ints: 1
      ints: 1
      ints: 1
      ints: 1
      type: INTS
    }
    attribute {
      name: "strides"
      ints: 1
      ints: 1
      type: INTS
    }
  }
  node {
    input: "Convolution2DFunction_22"
    output: "LeakyReLU_15"
    name: "LeakyReLU_15"
    op_type: "LeakyRelu"
    attribute {
      name: "alpha"
      f: 0.20000000298023224
      type: FLOAT
    }
  }
  node {
    input: "Add_3"
    input: "LeakyReLU_13"
    input: "LeakyReLU_14"
    input: "LeakyReLU_15"
    output: "Concat_15"
    name: "Concat_15"
    op_type: "Concat"
    attribute {
      name: "axis"
      i: 1
      type: INT
    }
  }
  node {
    input: "Concat_15"
    input: "param_residual_network_11_residual_dense_block1_conv_layer4_W"
    input: "param_residual_network_11_residual_dense_block1_conv_layer4_b"
    output: "Convolution2DFunction_23"
    name: "Convolution2DFunction_23"
    op_type: "Conv"
    attribute {
      name: "dilations"
      ints: 1
      ints: 1
      type: INTS
    }
    attribute {
      name: "group"
      i: 1
      type: INT
    }
    attribute {
      name: "kernel_shape"
      ints: 3
      ints: 3
      type: INTS
    }
    attribute {
      name: "pads"
      ints: 1
      ints: 1
      ints: 1
      ints: 1
      type: INTS
    }
    attribute {
      name: "strides"
      ints: 1
      ints: 1
      type: INTS
    }
  }
  node {
    input: "Convolution2DFunction_23"
    output: "LeakyReLU_16"
    name: "LeakyReLU_16"
    op_type: "LeakyRelu"
    attribute {
      name: "alpha"
      f: 0.20000000298023224
      type: FLOAT
    }
  }
  node {
    input: "Add_3"
    input: "LeakyReLU_13"
    input: "LeakyReLU_14"
    input: "LeakyReLU_15"
    input: "LeakyReLU_16"
    output: "Concat_16"
    name: "Concat_16"
    op_type: "Concat"
    attribute {
      name: "axis"
      i: 1
      type: INT
    }
  }
  node {
    input: "Concat_16"
    input: "param_residual_network_11_residual_dense_block1_conv_layer5_W"
    input: "param_residual_network_11_residual_dense_block1_conv_layer5_b"
    output: "Convolution2DFunction_24"
    name: "Convolution2DFunction_24"
    op_type: "Conv"
    attribute {
      name: "dilations"
      ints: 1
      ints: 1
      type: INTS
    }
    attribute {
      name: "group"
      i: 1
      type: INT
    }
    attribute {
      name: "kernel_shape"
      ints: 3
      ints: 3
      type: INTS
    }
    attribute {
      name: "pads"
      ints: 1
      ints: 1
      ints: 1
      ints: 1
      type: INTS
    }
    attribute {
      name: "strides"
      ints: 1
      ints: 1
      type: INTS
    }
  }
  node {
    input: "Convolution2DFunction_24"
    input: "v846"
    output: "MulConstant_4"
    name: "MulConstant_4"
    op_type: "Mul"
  }
  node {
    input: "MulConstant_4"
    input: "Add_3"
    output: "Add_4"
    name: "Add_4"
    op_type: "Add"
  }
  node {
    input: "Add_4"
    input: "param_residual_network_11_residual_dense_block2_conv_layer1_W"
    input: "param_residual_network_11_residual_dense_block2_conv_layer1_b"
    output: "Convolution2DFunction_25"
    name: "Convolution2DFunction_25"
    op_type: "Conv"
    attribute {
      name: "dilations"
      ints: 1
      ints: 1
      type: INTS
    }
    attribute {
      name: "group"
      i: 1
      type: INT
    }
    attribute {
      name: "kernel_shape"
      ints: 3
      ints: 3
      type: INTS
    }
    attribute {
      name: "pads"
      ints: 1
      ints: 1
      ints: 1
      ints: 1
      type: INTS
    }
    attribute {
      name: "strides"
      ints: 1
      ints: 1
      type: INTS
    }
  }
  node {
    input: "Convolution2DFunction_25"
    output: "LeakyReLU_17"
    name: "LeakyReLU_17"
    op_type: "LeakyRelu"
    attribute {
      name: "alpha"
      f: 0.20000000298023224
      type: FLOAT
    }
  }
  node {
    input: "Add_4"
    input: "LeakyReLU_17"
    output: "Concat_17"
    name: "Concat_17"
    op_type: "Concat"
    attribute {
      name: "axis"
      i: 1
      type: INT
    }
  }
  node {
    input: "Concat_17"
    input: "param_residual_network_11_residual_dense_block2_conv_layer2_W"
    input: "param_residual_network_11_residual_dense_block2_conv_layer2_b"
    output: "Convolution2DFunction_26"
    name: "Convolution2DFunction_26"
    op_type: "Conv"
    attribute {
      name: "dilations"
      ints: 1
      ints: 1
      type: INTS
    }
    attribute {
      name: "group"
      i: 1
      type: INT
    }
    attribute {
      name: "kernel_shape"
      ints: 3
      ints: 3
      type: INTS
    }
    attribute {
      name: "pads"
      ints: 1
      ints: 1
      ints: 1
      ints: 1
      type: INTS
    }
    attribute {
      name: "strides"
      ints: 1
      ints: 1
      type: INTS
    }
  }
  node {
    input: "Convolution2DFunction_26"
    output: "LeakyReLU_18"
    name: "LeakyReLU_18"
    op_type: "LeakyRelu"
    attribute {
      name: "alpha"
      f: 0.20000000298023224
      type: FLOAT
    }
  }
  node {
    input: "Add_4"
    input: "LeakyReLU_17"
    input: "LeakyReLU_18"
    output: "Concat_18"
    name: "Concat_18"
    op_type: "Concat"
    attribute {
      name: "axis"
      i: 1
      type: INT
    }
  }
  node {
    input: "Concat_18"
    input: "param_residual_network_11_residual_dense_block2_conv_layer3_W"
    input: "param_residual_network_11_residual_dense_block2_conv_layer3_b"
    output: "Convolution2DFunction_27"
    name: "Convolution2DFunction_27"
    op_type: "Conv"
    attribute {
      name: "dilations"
      ints: 1
      ints: 1
      type: INTS
    }
    attribute {
      name: "group"
      i: 1
      type: INT
    }
    attribute {
      name: "kernel_shape"
      ints: 3
      ints: 3
      type: INTS
    }
    attribute {
      name: "pads"
      ints: 1
      ints: 1
      ints: 1
      ints: 1
      type: INTS
    }
    attribute {
      name: "strides"
      ints: 1
      ints: 1
      type: INTS
    }
  }
  node {
    input: "Convolution2DFunction_27"
    output: "LeakyReLU_19"
    name: "LeakyReLU_19"
    op_type: "LeakyRelu"
    attribute {
      name: "alpha"
      f: 0.20000000298023224
      type: FLOAT
    }
  }
  node {
    input: "Add_4"
    input: "LeakyReLU_17"
    input: "LeakyReLU_18"
    input: "LeakyReLU_19"
    output: "Concat_19"
    name: "Concat_19"
    op_type: "Concat"
    attribute {
      name: "axis"
      i: 1
      type: INT
    }
  }
  node {
    input: "Concat_19"
    input: "param_residual_network_11_residual_dense_block2_conv_layer4_W"
    input: "param_residual_network_11_residual_dense_block2_conv_layer4_b"
    output: "Convolution2DFunction_28"
    name: "Convolution2DFunction_28"
    op_type: "Conv"
    attribute {
      name: "dilations"
      ints: 1
      ints: 1
      type: INTS
    }
    attribute {
      name: "group"
      i: 1
      type: INT
    }
    attribute {
      name: "kernel_shape"
      ints: 3
      ints: 3
      type: INTS
    }
    attribute {
      name: "pads"
      ints: 1
      ints: 1
      ints: 1
      ints: 1
      type: INTS
    }
    attribute {
      name: "strides"
      ints: 1
      ints: 1
      type: INTS
    }
  }
  node {
    input: "Convolution2DFunction_28"
    output: "LeakyReLU_20"
    name: "LeakyReLU_20"
    op_type: "LeakyRelu"
    attribute {
      name: "alpha"
      f: 0.20000000298023224
      type: FLOAT
    }
  }
  node {
    input: "Add_4"
    input: "LeakyReLU_17"
    input: "LeakyReLU_18"
    input: "LeakyReLU_19"
    input: "LeakyReLU_20"
    output: "Concat_20"
    name: "Concat_20"
    op_type: "Concat"
    attribute {
      name: "axis"
      i: 1
      type: INT
    }
  }
  node {
    input: "Concat_20"
    input: "param_residual_network_11_residual_dense_block2_conv_layer5_W"
    input: "param_residual_network_11_residual_dense_block2_conv_layer5_b"
    output: "Convolution2DFunction_29"
    name: "Convolution2DFunction_29"
    op_type: "Conv"
    attribute {
      name: "dilations"
      ints: 1
      ints: 1
      type: INTS
    }
    attribute {
      name: "group"
      i: 1
      type: INT
    }
    attribute {
      name: "kernel_shape"
      ints: 3
      ints: 3
      type: INTS
    }
    attribute {
      name: "pads"
      ints: 1
      ints: 1
      ints: 1
      ints: 1
      type: INTS
    }
    attribute {
      name: "strides"
      ints: 1
      ints: 1
      type: INTS
    }
  }
  node {
    input: "Convolution2DFunction_29"
    input: "v863"
    output: "MulConstant_5"
    name: "MulConstant_5"
    op_type: "Mul"
  }
  node {
    input: "MulConstant_5"
    input: "Add_4"
    output: "Add_5"
    name: "Add_5"
    op_type: "Add"
  }
  node {
    input: "Add_5"
    input: "param_residual_network_11_residual_dense_block3_conv_layer1_W"
    input: "param_residual_network_11_residual_dense_block3_conv_layer1_b"
    output: "Convolution2DFunction_30"
    name: "Convolution2DFunction_30"
    op_type: "Conv"
    attribute {
      name: "dilations"
      ints: 1
      ints: 1
      type: INTS
    }
    attribute {
      name: "group"
      i: 1
      type: INT
    }
    attribute {
      name: "kernel_shape"
      ints: 3
      ints: 3
      type: INTS
    }
    attribute {
      name: "pads"
      ints: 1
      ints: 1
      ints: 1
      ints: 1
      type: INTS
    }
    attribute {
      name: "strides"
      ints: 1
      ints: 1
      type: INTS
    }
  }
  node {
    input: "Convolution2DFunction_30"
    output: "LeakyReLU_21"
    name: "LeakyReLU_21"
    op_type: "LeakyRelu"
    attribute {
      name: "alpha"
      f: 0.20000000298023224
      type: FLOAT
    }
  }
  node {
    input: "Add_5"
    input: "LeakyReLU_21"
    output: "Concat_21"
    name: "Concat_21"
    op_type: "Concat"
    attribute {
      name: "axis"
      i: 1
      type: INT
    }
  }
  node {
    input: "Concat_21"
    input: "param_residual_network_11_residual_dense_block3_conv_layer2_W"
    input: "param_residual_network_11_residual_dense_block3_conv_layer2_b"
    output: "Convolution2DFunction_31"
    name: "Convolution2DFunction_31"
    op_type: "Conv"
    attribute {
      name: "dilations"
      ints: 1
      ints: 1
      type: INTS
    }
    attribute {
      name: "group"
      i: 1
      type: INT
    }
    attribute {
      name: "kernel_shape"
      ints: 3
      ints: 3
      type: INTS
    }
    attribute {
      name: "pads"
      ints: 1
      ints: 1
      ints: 1
      ints: 1
      type: INTS
    }
    attribute {
      name: "strides"
      ints: 1
      ints: 1
      type: INTS
    }
  }
  node {
    input: "Convolution2DFunction_31"
    output: "LeakyReLU_22"
    name: "LeakyReLU_22"
    op_type: "LeakyRelu"
    attribute {
      name: "alpha"
      f: 0.20000000298023224
      type: FLOAT
    }
  }
  node {
    input: "Add_5"
    input: "LeakyReLU_21"
    input: "LeakyReLU_22"
    output: "Concat_22"
    name: "Concat_22"
    op_type: "Concat"
    attribute {
      name: "axis"
      i: 1
      type: INT
    }
  }
  node {
    input: "Concat_22"
    input: "param_residual_network_11_residual_dense_block3_conv_layer3_W"
    input: "param_residual_network_11_residual_dense_block3_conv_layer3_b"
    output: "Convolution2DFunction_32"
    name: "Convolution2DFunction_32"
    op_type: "Conv"
    attribute {
      name: "dilations"
      ints: 1
      ints: 1
      type: INTS
    }
    attribute {
      name: "group"
      i: 1
      type: INT
    }
    attribute {
      name: "kernel_shape"
      ints: 3
      ints: 3
      type: INTS
    }
    attribute {
      name: "pads"
      ints: 1
      ints: 1
      ints: 1
      ints: 1
      type: INTS
    }
    attribute {
      name: "strides"
      ints: 1
      ints: 1
      type: INTS
    }
  }
  node {
    input: "Convolution2DFunction_32"
    output: "LeakyReLU_23"
    name: "LeakyReLU_23"
    op_type: "LeakyRelu"
    attribute {
      name: "alpha"
      f: 0.20000000298023224
      type: FLOAT
    }
  }
  node {
    input: "Add_5"
    input: "LeakyReLU_21"
    input: "LeakyReLU_22"
    input: "LeakyReLU_23"
    output: "Concat_23"
    name: "Concat_23"
    op_type: "Concat"
    attribute {
      name: "axis"
      i: 1
      type: INT
    }
  }
  node {
    input: "Concat_23"
    input: "param_residual_network_11_residual_dense_block3_conv_layer4_W"
    input: "param_residual_network_11_residual_dense_block3_conv_layer4_b"
    output: "Convolution2DFunction_33"
    name: "Convolution2DFunction_33"
    op_type: "Conv"
    attribute {
      name: "dilations"
      ints: 1
      ints: 1
      type: INTS
    }
    attribute {
      name: "group"
      i: 1
      type: INT
    }
    attribute {
      name: "kernel_shape"
      ints: 3
      ints: 3
      type: INTS
    }
    attribute {
      name: "pads"
      ints: 1
      ints: 1
      ints: 1
      ints: 1
      type: INTS
    }
    attribute {
      name: "strides"
      ints: 1
      ints: 1
      type: INTS
    }
  }
  node {
    input: "Convolution2DFunction_33"
    output: "LeakyReLU_24"
    name: "LeakyReLU_24"
    op_type: "LeakyRelu"
    attribute {
      name: "alpha"
      f: 0.20000000298023224
      type: FLOAT
    }
  }
  node {
    input: "Add_5"
    input: "LeakyReLU_21"
    input: "LeakyReLU_22"
    input: "LeakyReLU_23"
    input: "LeakyReLU_24"
    output: "Concat_24"
    name: "Concat_24"
    op_type: "Concat"
    attribute {
      name: "axis"
      i: 1
      type: INT
    }
  }
  node {
    input: "Concat_24"
    input: "param_residual_network_11_residual_dense_block3_conv_layer5_W"
    input: "param_residual_network_11_residual_dense_block3_conv_layer5_b"
    output: "Convolution2DFunction_34"
    name: "Convolution2DFunction_34"
    op_type: "Conv"
    attribute {
      name: "dilations"
      ints: 1
      ints: 1
      type: INTS
    }
    attribute {
      name: "group"
      i: 1
      type: INT
    }
    attribute {
      name: "kernel_shape"
      ints: 3
      ints: 3
      type: INTS
    }
    attribute {
      name: "pads"
      ints: 1
      ints: 1
      ints: 1
      ints: 1
      type: INTS
    }
    attribute {
      name: "strides"
      ints: 1
      ints: 1
      type: INTS
    }
  }
  node {
    input: "Convolution2DFunction_34"
    input: "v880"
    output: "MulConstant_6"
    name: "MulConstant_6"
    op_type: "Mul"
  }
  node {
    input: "MulConstant_6"
    input: "Add_5"
    output: "Add_6"
    name: "Add_6"
    op_type: "Add"
  }
  node {
    input: "Add_6"
    input: "v884"
    output: "MulConstant_7"
    name: "MulConstant_7"
    op_type: "Mul"
  }
  node {
    input: "MulConstant_7"
    input: "Add_3"
    output: "Add_7"
    name: "Add_7"
    op_type: "Add"
  }
  node {
    input: "Add_7"
    input: "param_residual_network_10_residual_dense_block1_conv_layer1_W"
    input: "param_residual_network_10_residual_dense_block1_conv_layer1_b"
    output: "Convolution2DFunction_35"
    name: "Convolution2DFunction_35"
    op_type: "Conv"
    attribute {
      name: "dilations"
      ints: 1
      ints: 1
      type: INTS
    }
    attribute {
      name: "group"
      i: 1
      type: INT
    }
    attribute {
      name: "kernel_shape"
      ints: 3
      ints: 3
      type: INTS
    }
    attribute {
      name: "pads"
      ints: 1
      ints: 1
      ints: 1
      ints: 1
      type: INTS
    }
    attribute {
      name: "strides"
      ints: 1
      ints: 1
      type: INTS
    }
  }
  node {
    input: "Convolution2DFunction_35"
    output: "LeakyReLU_25"
    name: "LeakyReLU_25"
    op_type: "LeakyRelu"
    attribute {
      name: "alpha"
      f: 0.20000000298023224
      type: FLOAT
    }
  }
  node {
    input: "Add_7"
    input: "LeakyReLU_25"
    output: "Concat_25"
    name: "Concat_25"
    op_type: "Concat"
    attribute {
      name: "axis"
      i: 1
      type: INT
    }
  }
  node {
    input: "Concat_25"
    input: "param_residual_network_10_residual_dense_block1_conv_layer2_W"
    input: "param_residual_network_10_residual_dense_block1_conv_layer2_b"
    output: "Convolution2DFunction_36"
    name: "Convolution2DFunction_36"
    op_type: "Conv"
    attribute {
      name: "dilations"
      ints: 1
      ints: 1
      type: INTS
    }
    attribute {
      name: "group"
      i: 1
      type: INT
    }
    attribute {
      name: "kernel_shape"
      ints: 3
      ints: 3
      type: INTS
    }
    attribute {
      name: "pads"
      ints: 1
      ints: 1
      ints: 1
      ints: 1
      type: INTS
    }
    attribute {
      name: "strides"
      ints: 1
      ints: 1
      type: INTS
    }
  }
  node {
    input: "Convolution2DFunction_36"
    output: "LeakyReLU_26"
    name: "LeakyReLU_26"
    op_type: "LeakyRelu"
    attribute {
      name: "alpha"
      f: 0.20000000298023224
      type: FLOAT
    }
  }
  node {
    input: "Add_7"
    input: "LeakyReLU_25"
    input: "LeakyReLU_26"
    output: "Concat_26"
    name: "Concat_26"
    op_type: "Concat"
    attribute {
      name: "axis"
      i: 1
      type: INT
    }
  }
  node {
    input: "Concat_26"
    input: "param_residual_network_10_residual_dense_block1_conv_layer3_W"
    input: "param_residual_network_10_residual_dense_block1_conv_layer3_b"
    output: "Convolution2DFunction_37"
    name: "Convolution2DFunction_37"
    op_type: "Conv"
    attribute {
      name: "dilations"
      ints: 1
      ints: 1
      type: INTS
    }
    attribute {
      name: "group"
      i: 1
      type: INT
    }
    attribute {
      name: "kernel_shape"
      ints: 3
      ints: 3
      type: INTS
    }
    attribute {
      name: "pads"
      ints: 1
      ints: 1
      ints: 1
      ints: 1
      type: INTS
    }
    attribute {
      name: "strides"
      ints: 1
      ints: 1
      type: INTS
    }
  }
  node {
    input: "Convolution2DFunction_37"
    output: "LeakyReLU_27"
    name: "LeakyReLU_27"
    op_type: "LeakyRelu"
    attribute {
      name: "alpha"
      f: 0.20000000298023224
      type: FLOAT
    }
  }
  node {
    input: "Add_7"
    input: "LeakyReLU_25"
    input: "LeakyReLU_26"
    input: "LeakyReLU_27"
    output: "Concat_27"
    name: "Concat_27"
    op_type: "Concat"
    attribute {
      name: "axis"
      i: 1
      type: INT
    }
  }
  node {
    input: "Concat_27"
    input: "param_residual_network_10_residual_dense_block1_conv_layer4_W"
    input: "param_residual_network_10_residual_dense_block1_conv_layer4_b"
    output: "Convolution2DFunction_38"
    name: "Convolution2DFunction_38"
    op_type: "Conv"
    attribute {
      name: "dilations"
      ints: 1
      ints: 1
      type: INTS
    }
    attribute {
      name: "group"
      i: 1
      type: INT
    }
    attribute {
      name: "kernel_shape"
      ints: 3
      ints: 3
      type: INTS
    }
    attribute {
      name: "pads"
      ints: 1
      ints: 1
      ints: 1
      ints: 1
      type: INTS
    }
    attribute {
      name: "strides"
      ints: 1
      ints: 1
      type: INTS
    }
  }
  node {
    input: "Convolution2DFunction_38"
    output: "LeakyReLU_28"
    name: "LeakyReLU_28"
    op_type: "LeakyRelu"
    attribute {
      name: "alpha"
      f: 0.20000000298023224
      type: FLOAT
    }
  }
  node {
    input: "Add_7"
    input: "LeakyReLU_25"
    input: "LeakyReLU_26"
    input: "LeakyReLU_27"
    input: "LeakyReLU_28"
    output: "Concat_28"
    name: "Concat_28"
    op_type: "Concat"
    attribute {
      name: "axis"
      i: 1
      type: INT
    }
  }
  node {
    input: "Concat_28"
    input: "param_residual_network_10_residual_dense_block1_conv_layer5_W"
    input: "param_residual_network_10_residual_dense_block1_conv_layer5_b"
    output: "Convolution2DFunction_39"
    name: "Convolution2DFunction_39"
    op_type: "Conv"
    attribute {
      name: "dilations"
      ints: 1
      ints: 1
      type: INTS
    }
    attribute {
      name: "group"
      i: 1
      type: INT
    }
    attribute {
      name: "kernel_shape"
      ints: 3
      ints: 3
      type: INTS
    }
    attribute {
      name: "pads"
      ints: 1
      ints: 1
      ints: 1
      ints: 1
      type: INTS
    }
    attribute {
      name: "strides"
      ints: 1
      ints: 1
      type: INTS
    }
  }
  node {
    input: "Convolution2DFunction_39"
    input: "v901"
    output: "MulConstant_8"
    name: "MulConstant_8"
    op_type: "Mul"
  }
  node {
    input: "MulConstant_8"
    input: "Add_7"
    output: "Add_8"
    name: "Add_8"
    op_type: "Add"
  }
  node {
    input: "Add_8"
    input: "param_residual_network_10_residual_dense_block2_conv_layer1_W"
    input: "param_residual_network_10_residual_dense_block2_conv_layer1_b"
    output: "Convolution2DFunction_40"
    name: "Convolution2DFunction_40"
    op_type: "Conv"
    attribute {
      name: "dilations"
      ints: 1
      ints: 1
      type: INTS
    }
    attribute {
      name: "group"
      i: 1
      type: INT
    }
    attribute {
      name: "kernel_shape"
      ints: 3
      ints: 3
      type: INTS
    }
    attribute {
      name: "pads"
      ints: 1
      ints: 1
      ints: 1
      ints: 1
      type: INTS
    }
    attribute {
      name: "strides"
      ints: 1
      ints: 1
      type: INTS
    }
  }
  node {
    input: "Convolution2DFunction_40"
    output: "LeakyReLU_29"
    name: "LeakyReLU_29"
    op_type: "LeakyRelu"
    attribute {
      name: "alpha"
      f: 0.20000000298023224
      type: FLOAT
    }
  }
  node {
    input: "Add_8"
    input: "LeakyReLU_29"
    output: "Concat_29"
    name: "Concat_29"
    op_type: "Concat"
    attribute {
      name: "axis"
      i: 1
      type: INT
    }
  }
  node {
    input: "Concat_29"
    input: "param_residual_network_10_residual_dense_block2_conv_layer2_W"
    input: "param_residual_network_10_residual_dense_block2_conv_layer2_b"
    output: "Convolution2DFunction_41"
    name: "Convolution2DFunction_41"
    op_type: "Conv"
    attribute {
      name: "dilations"
      ints: 1
      ints: 1
      type: INTS
    }
    attribute {
      name: "group"
      i: 1
      type: INT
    }
    attribute {
      name: "kernel_shape"
      ints: 3
      ints: 3
      type: INTS
    }
    attribute {
      name: "pads"
      ints: 1
      ints: 1
      ints: 1
      ints: 1
      type: INTS
    }
    attribute {
      name: "strides"
      ints: 1
      ints: 1
      type: INTS
    }
  }
  node {
    input: "Convolution2DFunction_41"
    output: "LeakyReLU_30"
    name: "LeakyReLU_30"
    op_type: "LeakyRelu"
    attribute {
      name: "alpha"
      f: 0.20000000298023224
      type: FLOAT
    }
  }
  node {
    input: "Add_8"
    input: "LeakyReLU_29"
    input: "LeakyReLU_30"
    output: "Concat_30"
    name: "Concat_30"
    op_type: "Concat"
    attribute {
      name: "axis"
      i: 1
      type: INT
    }
  }
  node {
    input: "Concat_30"
    input: "param_residual_network_10_residual_dense_block2_conv_layer3_W"
    input: "param_residual_network_10_residual_dense_block2_conv_layer3_b"
    output: "Convolution2DFunction_42"
    name: "Convolution2DFunction_42"
    op_type: "Conv"
    attribute {
      name: "dilations"
      ints: 1
      ints: 1
      type: INTS
    }
    attribute {
      name: "group"
      i: 1
      type: INT
    }
    attribute {
      name: "kernel_shape"
      ints: 3
      ints: 3
      type: INTS
    }
    attribute {
      name: "pads"
      ints: 1
      ints: 1
      ints: 1
      ints: 1
      type: INTS
    }
    attribute {
      name: "strides"
      ints: 1
      ints: 1
      type: INTS
    }
  }
  node {
    input: "Convolution2DFunction_42"
    output: "LeakyReLU_31"
    name: "LeakyReLU_31"
    op_type: "LeakyRelu"
    attribute {
      name: "alpha"
      f: 0.20000000298023224
      type: FLOAT
    }
  }
  node {
    input: "Add_8"
    input: "LeakyReLU_29"
    input: "LeakyReLU_30"
    input: "LeakyReLU_31"
    output: "Concat_31"
    name: "Concat_31"
    op_type: "Concat"
    attribute {
      name: "axis"
      i: 1
      type: INT
    }
  }
  node {
    input: "Concat_31"
    input: "param_residual_network_10_residual_dense_block2_conv_layer4_W"
    input: "param_residual_network_10_residual_dense_block2_conv_layer4_b"
    output: "Convolution2DFunction_43"
    name: "Convolution2DFunction_43"
    op_type: "Conv"
    attribute {
      name: "dilations"
      ints: 1
      ints: 1
      type: INTS
    }
    attribute {
      name: "group"
      i: 1
      type: INT
    }
    attribute {
      name: "kernel_shape"
      ints: 3
      ints: 3
      type: INTS
    }
    attribute {
      name: "pads"
      ints: 1
      ints: 1
      ints: 1
      ints: 1
      type: INTS
    }
    attribute {
      name: "strides"
      ints: 1
      ints: 1
      type: INTS
    }
  }
  node {
    input: "Convolution2DFunction_43"
    output: "LeakyReLU_32"
    name: "LeakyReLU_32"
    op_type: "LeakyRelu"
    attribute {
      name: "alpha"
      f: 0.20000000298023224
      type: FLOAT
    }
  }
  node {
    input: "Add_8"
    input: "LeakyReLU_29"
    input: "LeakyReLU_30"
    input: "LeakyReLU_31"
    input: "LeakyReLU_32"
    output: "Concat_32"
    name: "Concat_32"
    op_type: "Concat"
    attribute {
      name: "axis"
      i: 1
      type: INT
    }
  }
  node {
    input: "Concat_32"
    input: "param_residual_network_10_residual_dense_block2_conv_layer5_W"
    input: "param_residual_network_10_residual_dense_block2_conv_layer5_b"
    output: "Convolution2DFunction_44"
    name: "Convolution2DFunction_44"
    op_type: "Conv"
    attribute {
      name: "dilations"
      ints: 1
      ints: 1
      type: INTS
    }
    attribute {
      name: "group"
      i: 1
      type: INT
    }
    attribute {
      name: "kernel_shape"
      ints: 3
      ints: 3
      type: INTS
    }
    attribute {
      name: "pads"
      ints: 1
      ints: 1
      ints: 1
      ints: 1
      type: INTS
    }
    attribute {
      name: "strides"
      ints: 1
      ints: 1
      type: INTS
    }
  }
  node {
    input: "Convolution2DFunction_44"
    input: "v918"
    output: "MulConstant_9"
    name: "MulConstant_9"
    op_type: "Mul"
  }
  node {
    input: "MulConstant_9"
    input: "Add_8"
    output: "Add_9"
    name: "Add_9"
    op_type: "Add"
  }
  node {
    input: "Add_9"
    input: "param_residual_network_10_residual_dense_block3_conv_layer1_W"
    input: "param_residual_network_10_residual_dense_block3_conv_layer1_b"
    output: "Convolution2DFunction_45"
    name: "Convolution2DFunction_45"
    op_type: "Conv"
    attribute {
      name: "dilations"
      ints: 1
      ints: 1
      type: INTS
    }
    attribute {
      name: "group"
      i: 1
      type: INT
    }
    attribute {
      name: "kernel_shape"
      ints: 3
      ints: 3
      type: INTS
    }
    attribute {
      name: "pads"
      ints: 1
      ints: 1
      ints: 1
      ints: 1
      type: INTS
    }
    attribute {
      name: "strides"
      ints: 1
      ints: 1
      type: INTS
    }
  }
  node {
    input: "Convolution2DFunction_45"
    output: "LeakyReLU_33"
    name: "LeakyReLU_33"
    op_type: "LeakyRelu"
    attribute {
      name: "alpha"
      f: 0.20000000298023224
      type: FLOAT
    }
  }
  node {
    input: "Add_9"
    input: "LeakyReLU_33"
    output: "Concat_33"
    name: "Concat_33"
    op_type: "Concat"
    attribute {
      name: "axis"
      i: 1
      type: INT
    }
  }
  node {
    input: "Concat_33"
    input: "param_residual_network_10_residual_dense_block3_conv_layer2_W"
    input: "param_residual_network_10_residual_dense_block3_conv_layer2_b"
    output: "Convolution2DFunction_46"
    name: "Convolution2DFunction_46"
    op_type: "Conv"
    attribute {
      name: "dilations"
      ints: 1
      ints: 1
      type: INTS
    }
    attribute {
      name: "group"
      i: 1
      type: INT
    }
    attribute {
      name: "kernel_shape"
      ints: 3
      ints: 3
      type: INTS
    }
    attribute {
      name: "pads"
      ints: 1
      ints: 1
      ints: 1
      ints: 1
      type: INTS
    }
    attribute {
      name: "strides"
      ints: 1
      ints: 1
      type: INTS
    }
  }
  node {
    input: "Convolution2DFunction_46"
    output: "LeakyReLU_34"
    name: "LeakyReLU_34"
    op_type: "LeakyRelu"
    attribute {
      name: "alpha"
      f: 0.20000000298023224
      type: FLOAT
    }
  }
  node {
    input: "Add_9"
    input: "LeakyReLU_33"
    input: "LeakyReLU_34"
    output: "Concat_34"
    name: "Concat_34"
    op_type: "Concat"
    attribute {
      name: "axis"
      i: 1
      type: INT
    }
  }
  node {
    input: "Concat_34"
    input: "param_residual_network_10_residual_dense_block3_conv_layer3_W"
    input: "param_residual_network_10_residual_dense_block3_conv_layer3_b"
    output: "Convolution2DFunction_47"
    name: "Convolution2DFunction_47"
    op_type: "Conv"
    attribute {
      name: "dilations"
      ints: 1
      ints: 1
      type: INTS
    }
    attribute {
      name: "group"
      i: 1
      type: INT
    }
    attribute {
      name: "kernel_shape"
      ints: 3
      ints: 3
      type: INTS
    }
    attribute {
      name: "pads"
      ints: 1
      ints: 1
      ints: 1
      ints: 1
      type: INTS
    }
    attribute {
      name: "strides"
      ints: 1
      ints: 1
      type: INTS
    }
  }
  node {
    input: "Convolution2DFunction_47"
    output: "LeakyReLU_35"
    name: "LeakyReLU_35"
    op_type: "LeakyRelu"
    attribute {
      name: "alpha"
      f: 0.20000000298023224
      type: FLOAT
    }
  }
  node {
    input: "Add_9"
    input: "LeakyReLU_33"
    input: "LeakyReLU_34"
    input: "LeakyReLU_35"
    output: "Concat_35"
    name: "Concat_35"
    op_type: "Concat"
    attribute {
      name: "axis"
      i: 1
      type: INT
    }
  }
  node {
    input: "Concat_35"
    input: "param_residual_network_10_residual_dense_block3_conv_layer4_W"
    input: "param_residual_network_10_residual_dense_block3_conv_layer4_b"
    output: "Convolution2DFunction_48"
    name: "Convolution2DFunction_48"
    op_type: "Conv"
    attribute {
      name: "dilations"
      ints: 1
      ints: 1
      type: INTS
    }
    attribute {
      name: "group"
      i: 1
      type: INT
    }
    attribute {
      name: "kernel_shape"
      ints: 3
      ints: 3
      type: INTS
    }
    attribute {
      name: "pads"
      ints: 1
      ints: 1
      ints: 1
      ints: 1
      type: INTS
    }
    attribute {
      name: "strides"
      ints: 1
      ints: 1
      type: INTS
    }
  }
  node {
    input: "Convolution2DFunction_48"
    output: "LeakyReLU_36"
    name: "LeakyReLU_36"
    op_type: "LeakyRelu"
    attribute {
      name: "alpha"
      f: 0.20000000298023224
      type: FLOAT
    }
  }
  node {
    input: "Add_9"
    input: "LeakyReLU_33"
    input: "LeakyReLU_34"
    input: "LeakyReLU_35"
    input: "LeakyReLU_36"
    output: "Concat_36"
    name: "Concat_36"
    op_type: "Concat"
    attribute {
      name: "axis"
      i: 1
      type: INT
    }
  }
  node {
    input: "Concat_36"
    input: "param_residual_network_10_residual_dense_block3_conv_layer5_W"
    input: "param_residual_network_10_residual_dense_block3_conv_layer5_b"
    output: "Convolution2DFunction_49"
    name: "Convolution2DFunction_49"
    op_type: "Conv"
    attribute {
      name: "dilations"
      ints: 1
      ints: 1
      type: INTS
    }
    attribute {
      name: "group"
      i: 1
      type: INT
    }
    attribute {
      name: "kernel_shape"
      ints: 3
      ints: 3
      type: INTS
    }
    attribute {
      name: "pads"
      ints: 1
      ints: 1
      ints: 1
      ints: 1
      type: INTS
    }
    attribute {
      name: "strides"
      ints: 1
      ints: 1
      type: INTS
    }
  }
  node {
    input: "Convolution2DFunction_49"
    input: "v935"
    output: "MulConstant_10"
    name: "MulConstant_10"
    op_type: "Mul"
  }
  node {
    input: "MulConstant_10"
    input: "Add_9"
    output: "Add_10"
    name: "Add_10"
    op_type: "Add"
  }
  node {
    input: "Add_10"
    input: "v939"
    output: "MulConstant_11"
    name: "MulConstant_11"
    op_type: "Mul"
  }
  node {
    input: "MulConstant_11"
    input: "Add_7"
    output: "Add_11"
    name: "Add_11"
    op_type: "Add"
  }
  node {
    input: "Add_11"
    input: "param_residual_network_9_residual_dense_block1_conv_layer1_W"
    input: "param_residual_network_9_residual_dense_block1_conv_layer1_b"
    output: "Convolution2DFunction_50"
    name: "Convolution2DFunction_50"
    op_type: "Conv"
    attribute {
      name: "dilations"
      ints: 1
      ints: 1
      type: INTS
    }
    attribute {
      name: "group"
      i: 1
      type: INT
    }
    attribute {
      name: "kernel_shape"
      ints: 3
      ints: 3
      type: INTS
    }
    attribute {
      name: "pads"
      ints: 1
      ints: 1
      ints: 1
      ints: 1
      type: INTS
    }
    attribute {
      name: "strides"
      ints: 1
      ints: 1
      type: INTS
    }
  }
  node {
    input: "Convolution2DFunction_50"
    output: "LeakyReLU_37"
    name: "LeakyReLU_37"
    op_type: "LeakyRelu"
    attribute {
      name: "alpha"
      f: 0.20000000298023224
      type: FLOAT
    }
  }
  node {
    input: "Add_11"
    input: "LeakyReLU_37"
    output: "Concat_37"
    name: "Concat_37"
    op_type: "Concat"
    attribute {
      name: "axis"
      i: 1
      type: INT
    }
  }
  node {
    input: "Concat_37"
    input: "param_residual_network_9_residual_dense_block1_conv_layer2_W"
    input: "param_residual_network_9_residual_dense_block1_conv_layer2_b"
    output: "Convolution2DFunction_51"
    name: "Convolution2DFunction_51"
    op_type: "Conv"
    attribute {
      name: "dilations"
      ints: 1
      ints: 1
      type: INTS
    }
    attribute {
      name: "group"
      i: 1
      type: INT
    }
    attribute {
      name: "kernel_shape"
      ints: 3
      ints: 3
      type: INTS
    }
    attribute {
      name: "pads"
      ints: 1
      ints: 1
      ints: 1
      ints: 1
      type: INTS
    }
    attribute {
      name: "strides"
      ints: 1
      ints: 1
      type: INTS
    }
  }
  node {
    input: "Convolution2DFunction_51"
    output: "LeakyReLU_38"
    name: "LeakyReLU_38"
    op_type: "LeakyRelu"
    attribute {
      name: "alpha"
      f: 0.20000000298023224
      type: FLOAT
    }
  }
  node {
    input: "Add_11"
    input: "LeakyReLU_37"
    input: "LeakyReLU_38"
    output: "Concat_38"
    name: "Concat_38"
    op_type: "Concat"
    attribute {
      name: "axis"
      i: 1
      type: INT
    }
  }
  node {
    input: "Concat_38"
    input: "param_residual_network_9_residual_dense_block1_conv_layer3_W"
    input: "param_residual_network_9_residual_dense_block1_conv_layer3_b"
    output: "Convolution2DFunction_52"
    name: "Convolution2DFunction_52"
    op_type: "Conv"
    attribute {
      name: "dilations"
      ints: 1
      ints: 1
      type: INTS
    }
    attribute {
      name: "group"
      i: 1
      type: INT
    }
    attribute {
      name: "kernel_shape"
      ints: 3
      ints: 3
      type: INTS
    }
    attribute {
      name: "pads"
      ints: 1
      ints: 1
      ints: 1
      ints: 1
      type: INTS
    }
    attribute {
      name: "strides"
      ints: 1
      ints: 1
      type: INTS
    }
  }
  node {
    input: "Convolution2DFunction_52"
    output: "LeakyReLU_39"
    name: "LeakyReLU_39"
    op_type: "LeakyRelu"
    attribute {
      name: "alpha"
      f: 0.20000000298023224
      type: FLOAT
    }
  }
  node {
    input: "Add_11"
    input: "LeakyReLU_37"
    input: "LeakyReLU_38"
    input: "LeakyReLU_39"
    output: "Concat_39"
    name: "Concat_39"
    op_type: "Concat"
    attribute {
      name: "axis"
      i: 1
      type: INT
    }
  }
  node {
    input: "Concat_39"
    input: "param_residual_network_9_residual_dense_block1_conv_layer4_W"
    input: "param_residual_network_9_residual_dense_block1_conv_layer4_b"
    output: "Convolution2DFunction_53"
    name: "Convolution2DFunction_53"
    op_type: "Conv"
    attribute {
      name: "dilations"
      ints: 1
      ints: 1
      type: INTS
    }
    attribute {
      name: "group"
      i: 1
      type: INT
    }
    attribute {
      name: "kernel_shape"
      ints: 3
      ints: 3
      type: INTS
    }
    attribute {
      name: "pads"
      ints: 1
      ints: 1
      ints: 1
      ints: 1
      type: INTS
    }
    attribute {
      name: "strides"
      ints: 1
      ints: 1
      type: INTS
    }
  }
  node {
    input: "Convolution2DFunction_53"
    output: "LeakyReLU_40"
    name: "LeakyReLU_40"
    op_type: "LeakyRelu"
    attribute {
      name: "alpha"
      f: 0.20000000298023224
      type: FLOAT
    }
  }
  node {
    input: "Add_11"
    input: "LeakyReLU_37"
    input: "LeakyReLU_38"
    input: "LeakyReLU_39"
    input: "LeakyReLU_40"
    output: "Concat_40"
    name: "Concat_40"
    op_type: "Concat"
    attribute {
      name: "axis"
      i: 1
      type: INT
    }
  }
  node {
    input: "Concat_40"
    input: "param_residual_network_9_residual_dense_block1_conv_layer5_W"
    input: "param_residual_network_9_residual_dense_block1_conv_layer5_b"
    output: "Convolution2DFunction_54"
    name: "Convolution2DFunction_54"
    op_type: "Conv"
    attribute {
      name: "dilations"
      ints: 1
      ints: 1
      type: INTS
    }
    attribute {
      name: "group"
      i: 1
      type: INT
    }
    attribute {
      name: "kernel_shape"
      ints: 3
      ints: 3
      type: INTS
    }
    attribute {
      name: "pads"
      ints: 1
      ints: 1
      ints: 1
      ints: 1
      type: INTS
    }
    attribute {
      name: "strides"
      ints: 1
      ints: 1
      type: INTS
    }
  }
  node {
    input: "Convolution2DFunction_54"
    input: "v956"
    output: "MulConstant_12"
    name: "MulConstant_12"
    op_type: "Mul"
  }
  node {
    input: "MulConstant_12"
    input: "Add_11"
    output: "Add_12"
    name: "Add_12"
    op_type: "Add"
  }
  node {
    input: "Add_12"
    input: "param_residual_network_9_residual_dense_block2_conv_layer1_W"
    input: "param_residual_network_9_residual_dense_block2_conv_layer1_b"
    output: "Convolution2DFunction_55"
    name: "Convolution2DFunction_55"
    op_type: "Conv"
    attribute {
      name: "dilations"
      ints: 1
      ints: 1
      type: INTS
    }
    attribute {
      name: "group"
      i: 1
      type: INT
    }
    attribute {
      name: "kernel_shape"
      ints: 3
      ints: 3
      type: INTS
    }
    attribute {
      name: "pads"
      ints: 1
      ints: 1
      ints: 1
      ints: 1
      type: INTS
    }
    attribute {
      name: "strides"
      ints: 1
      ints: 1
      type: INTS
    }
  }
  node {
    input: "Convolution2DFunction_55"
    output: "LeakyReLU_41"
    name: "LeakyReLU_41"
    op_type: "LeakyRelu"
    attribute {
      name: "alpha"
      f: 0.20000000298023224
      type: FLOAT
    }
  }
  node {
    input: "Add_12"
    input: "LeakyReLU_41"
    output: "Concat_41"
    name: "Concat_41"
    op_type: "Concat"
    attribute {
      name: "axis"
      i: 1
      type: INT
    }
  }
  node {
    input: "Concat_41"
    input: "param_residual_network_9_residual_dense_block2_conv_layer2_W"
    input: "param_residual_network_9_residual_dense_block2_conv_layer2_b"
    output: "Convolution2DFunction_56"
    name: "Convolution2DFunction_56"
    op_type: "Conv"
    attribute {
      name: "dilations"
      ints: 1
      ints: 1
      type: INTS
    }
    attribute {
      name: "group"
      i: 1
      type: INT
    }
    attribute {
      name: "kernel_shape"
      ints: 3
      ints: 3
      type: INTS
    }
    attribute {
      name: "pads"
      ints: 1
      ints: 1
      ints: 1
      ints: 1
      type: INTS
    }
    attribute {
      name: "strides"
      ints: 1
      ints: 1
      type: INTS
    }
  }
  node {
    input: "Convolution2DFunction_56"
    output: "LeakyReLU_42"
    name: "LeakyReLU_42"
    op_type: "LeakyRelu"
    attribute {
      name: "alpha"
      f: 0.20000000298023224
      type: FLOAT
    }
  }
  node {
    input: "Add_12"
    input: "LeakyReLU_41"
    input: "LeakyReLU_42"
    output: "Concat_42"
    name: "Concat_42"
    op_type: "Concat"
    attribute {
      name: "axis"
      i: 1
      type: INT
    }
  }
  node {
    input: "Concat_42"
    input: "param_residual_network_9_residual_dense_block2_conv_layer3_W"
    input: "param_residual_network_9_residual_dense_block2_conv_layer3_b"
    output: "Convolution2DFunction_57"
    name: "Convolution2DFunction_57"
    op_type: "Conv"
    attribute {
      name: "dilations"
      ints: 1
      ints: 1
      type: INTS
    }
    attribute {
      name: "group"
      i: 1
      type: INT
    }
    attribute {
      name: "kernel_shape"
      ints: 3
      ints: 3
      type: INTS
    }
    attribute {
      name: "pads"
      ints: 1
      ints: 1
      ints: 1
      ints: 1
      type: INTS
    }
    attribute {
      name: "strides"
      ints: 1
      ints: 1
      type: INTS
    }
  }
  node {
    input: "Convolution2DFunction_57"
    output: "LeakyReLU_43"
    name: "LeakyReLU_43"
    op_type: "LeakyRelu"
    attribute {
      name: "alpha"
      f: 0.20000000298023224
      type: FLOAT
    }
  }
  node {
    input: "Add_12"
    input: "LeakyReLU_41"
    input: "LeakyReLU_42"
    input: "LeakyReLU_43"
    output: "Concat_43"
    name: "Concat_43"
    op_type: "Concat"
    attribute {
      name: "axis"
      i: 1
      type: INT
    }
  }
  node {
    input: "Concat_43"
    input: "param_residual_network_9_residual_dense_block2_conv_layer4_W"
    input: "param_residual_network_9_residual_dense_block2_conv_layer4_b"
    output: "Convolution2DFunction_58"
    name: "Convolution2DFunction_58"
    op_type: "Conv"
    attribute {
      name: "dilations"
      ints: 1
      ints: 1
      type: INTS
    }
    attribute {
      name: "group"
      i: 1
      type: INT
    }
    attribute {
      name: "kernel_shape"
      ints: 3
      ints: 3
      type: INTS
    }
    attribute {
      name: "pads"
      ints: 1
      ints: 1
      ints: 1
      ints: 1
      type: INTS
    }
    attribute {
      name: "strides"
      ints: 1
      ints: 1
      type: INTS
    }
  }
  node {
    input: "Convolution2DFunction_58"
    output: "LeakyReLU_44"
    name: "LeakyReLU_44"
    op_type: "LeakyRelu"
    attribute {
      name: "alpha"
      f: 0.20000000298023224
      type: FLOAT
    }
  }
  node {
    input: "Add_12"
    input: "LeakyReLU_41"
    input: "LeakyReLU_42"
    input: "LeakyReLU_43"
    input: "LeakyReLU_44"
    output: "Concat_44"
    name: "Concat_44"
    op_type: "Concat"
    attribute {
      name: "axis"
      i: 1
      type: INT
    }
  }
  node {
    input: "Concat_44"
    input: "param_residual_network_9_residual_dense_block2_conv_layer5_W"
    input: "param_residual_network_9_residual_dense_block2_conv_layer5_b"
    output: "Convolution2DFunction_59"
    name: "Convolution2DFunction_59"
    op_type: "Conv"
    attribute {
      name: "dilations"
      ints: 1
      ints: 1
      type: INTS
    }
    attribute {
      name: "group"
      i: 1
      type: INT
    }
    attribute {
      name: "kernel_shape"
      ints: 3
      ints: 3
      type: INTS
    }
    attribute {
      name: "pads"
      ints: 1
      ints: 1
      ints: 1
      ints: 1
      type: INTS
    }
    attribute {
      name: "strides"
      ints: 1
      ints: 1
      type: INTS
    }
  }
  node {
    input: "Convolution2DFunction_59"
    input: "v973"
    output: "MulConstant_13"
    name: "MulConstant_13"
    op_type: "Mul"
  }
  node {
    input: "MulConstant_13"
    input: "Add_12"
    output: "Add_13"
    name: "Add_13"
    op_type: "Add"
  }
  node {
    input: "Add_13"
    input: "param_residual_network_9_residual_dense_block3_conv_layer1_W"
    input: "param_residual_network_9_residual_dense_block3_conv_layer1_b"
    output: "Convolution2DFunction_60"
    name: "Convolution2DFunction_60"
    op_type: "Conv"
    attribute {
      name: "dilations"
      ints: 1
      ints: 1
      type: INTS
    }
    attribute {
      name: "group"
      i: 1
      type: INT
    }
    attribute {
      name: "kernel_shape"
      ints: 3
      ints: 3
      type: INTS
    }
    attribute {
      name: "pads"
      ints: 1
      ints: 1
      ints: 1
      ints: 1
      type: INTS
    }
    attribute {
      name: "strides"
      ints: 1
      ints: 1
      type: INTS
    }
  }
  node {
    input: "Convolution2DFunction_60"
    output: "LeakyReLU_45"
    name: "LeakyReLU_45"
    op_type: "LeakyRelu"
    attribute {
      name: "alpha"
      f: 0.20000000298023224
      type: FLOAT
    }
  }
  node {
    input: "Add_13"
    input: "LeakyReLU_45"
    output: "Concat_45"
    name: "Concat_45"
    op_type: "Concat"
    attribute {
      name: "axis"
      i: 1
      type: INT
    }
  }
  node {
    input: "Concat_45"
    input: "param_residual_network_9_residual_dense_block3_conv_layer2_W"
    input: "param_residual_network_9_residual_dense_block3_conv_layer2_b"
    output: "Convolution2DFunction_61"
    name: "Convolution2DFunction_61"
    op_type: "Conv"
    attribute {
      name: "dilations"
      ints: 1
      ints: 1
      type: INTS
    }
    attribute {
      name: "group"
      i: 1
      type: INT
    }
    attribute {
      name: "kernel_shape"
      ints: 3
      ints: 3
      type: INTS
    }
    attribute {
      name: "pads"
      ints: 1
      ints: 1
      ints: 1
      ints: 1
      type: INTS
    }
    attribute {
      name: "strides"
      ints: 1
      ints: 1
      type: INTS
    }
  }
  node {
    input: "Convolution2DFunction_61"
    output: "LeakyReLU_46"
    name: "LeakyReLU_46"
    op_type: "LeakyRelu"
    attribute {
      name: "alpha"
      f: 0.20000000298023224
      type: FLOAT
    }
  }
  node {
    input: "Add_13"
    input: "LeakyReLU_45"
    input: "LeakyReLU_46"
    output: "Concat_46"
    name: "Concat_46"
    op_type: "Concat"
    attribute {
      name: "axis"
      i: 1
      type: INT
    }
  }
  node {
    input: "Concat_46"
    input: "param_residual_network_9_residual_dense_block3_conv_layer3_W"
    input: "param_residual_network_9_residual_dense_block3_conv_layer3_b"
    output: "Convolution2DFunction_62"
    name: "Convolution2DFunction_62"
    op_type: "Conv"
    attribute {
      name: "dilations"
      ints: 1
      ints: 1
      type: INTS
    }
    attribute {
      name: "group"
      i: 1
      type: INT
    }
    attribute {
      name: "kernel_shape"
      ints: 3
      ints: 3
      type: INTS
    }
    attribute {
      name: "pads"
      ints: 1
      ints: 1
      ints: 1
      ints: 1
      type: INTS
    }
    attribute {
      name: "strides"
      ints: 1
      ints: 1
      type: INTS
    }
  }
  node {
    input: "Convolution2DFunction_62"
    output: "LeakyReLU_47"
    name: "LeakyReLU_47"
    op_type: "LeakyRelu"
    attribute {
      name: "alpha"
      f: 0.20000000298023224
      type: FLOAT
    }
  }
  node {
    input: "Add_13"
    input: "LeakyReLU_45"
    input: "LeakyReLU_46"
    input: "LeakyReLU_47"
    output: "Concat_47"
    name: "Concat_47"
    op_type: "Concat"
    attribute {
      name: "axis"
      i: 1
      type: INT
    }
  }
  node {
    input: "Concat_47"
    input: "param_residual_network_9_residual_dense_block3_conv_layer4_W"
    input: "param_residual_network_9_residual_dense_block3_conv_layer4_b"
    output: "Convolution2DFunction_63"
    name: "Convolution2DFunction_63"
    op_type: "Conv"
    attribute {
      name: "dilations"
      ints: 1
      ints: 1
      type: INTS
    }
    attribute {
      name: "group"
      i: 1
      type: INT
    }
    attribute {
      name: "kernel_shape"
      ints: 3
      ints: 3
      type: INTS
    }
    attribute {
      name: "pads"
      ints: 1
      ints: 1
      ints: 1
      ints: 1
      type: INTS
    }
    attribute {
      name: "strides"
      ints: 1
      ints: 1
      type: INTS
    }
  }
  node {
    input: "Convolution2DFunction_63"
    output: "LeakyReLU_48"
    name: "LeakyReLU_48"
    op_type: "LeakyRelu"
    attribute {
      name: "alpha"
      f: 0.20000000298023224
      type: FLOAT
    }
  }
  node {
    input: "Add_13"
    input: "LeakyReLU_45"
    input: "LeakyReLU_46"
    input: "LeakyReLU_47"
    input: "LeakyReLU_48"
    output: "Concat_48"
    name: "Concat_48"
    op_type: "Concat"
    attribute {
      name: "axis"
      i: 1
      type: INT
    }
  }
  node {
    input: "Concat_48"
    input: "param_residual_network_9_residual_dense_block3_conv_layer5_W"
    input: "param_residual_network_9_residual_dense_block3_conv_layer5_b"
    output: "Convolution2DFunction_64"
    name: "Convolution2DFunction_64"
    op_type: "Conv"
    attribute {
      name: "dilations"
      ints: 1
      ints: 1
      type: INTS
    }
    attribute {
      name: "group"
      i: 1
      type: INT
    }
    attribute {
      name: "kernel_shape"
      ints: 3
      ints: 3
      type: INTS
    }
    attribute {
      name: "pads"
      ints: 1
      ints: 1
      ints: 1
      ints: 1
      type: INTS
    }
    attribute {
      name: "strides"
      ints: 1
      ints: 1
      type: INTS
    }
  }
  node {
    input: "Convolution2DFunction_64"
    input: "v990"
    output: "MulConstant_14"
    name: "MulConstant_14"
    op_type: "Mul"
  }
  node {
    input: "MulConstant_14"
    input: "Add_13"
    output: "Add_14"
    name: "Add_14"
    op_type: "Add"
  }
  node {
    input: "Add_14"
    input: "v994"
    output: "MulConstant_15"
    name: "MulConstant_15"
    op_type: "Mul"
  }
  node {
    input: "MulConstant_15"
    input: "Add_11"
    output: "Add_15"
    name: "Add_15"
    op_type: "Add"
  }
  node {
    input: "Add_15"
    input: "param_residual_network_8_residual_dense_block1_conv_layer1_W"
    input: "param_residual_network_8_residual_dense_block1_conv_layer1_b"
    output: "Convolution2DFunction_65"
    name: "Convolution2DFunction_65"
    op_type: "Conv"
    attribute {
      name: "dilations"
      ints: 1
      ints: 1
      type: INTS
    }
    attribute {
      name: "group"
      i: 1
      type: INT
    }
    attribute {
      name: "kernel_shape"
      ints: 3
      ints: 3
      type: INTS
    }
    attribute {
      name: "pads"
      ints: 1
      ints: 1
      ints: 1
      ints: 1
      type: INTS
    }
    attribute {
      name: "strides"
      ints: 1
      ints: 1
      type: INTS
    }
  }
  node {
    input: "Convolution2DFunction_65"
    output: "LeakyReLU_49"
    name: "LeakyReLU_49"
    op_type: "LeakyRelu"
    attribute {
      name: "alpha"
      f: 0.20000000298023224
      type: FLOAT
    }
  }
  node {
    input: "Add_15"
    input: "LeakyReLU_49"
    output: "Concat_49"
    name: "Concat_49"
    op_type: "Concat"
    attribute {
      name: "axis"
      i: 1
      type: INT
    }
  }
  node {
    input: "Concat_49"
    input: "param_residual_network_8_residual_dense_block1_conv_layer2_W"
    input: "param_residual_network_8_residual_dense_block1_conv_layer2_b"
    output: "Convolution2DFunction_66"
    name: "Convolution2DFunction_66"
    op_type: "Conv"
    attribute {
      name: "dilations"
      ints: 1
      ints: 1
      type: INTS
    }
    attribute {
      name: "group"
      i: 1
      type: INT
    }
    attribute {
      name: "kernel_shape"
      ints: 3
      ints: 3
      type: INTS
    }
    attribute {
      name: "pads"
      ints: 1
      ints: 1
      ints: 1
      ints: 1
      type: INTS
    }
    attribute {
      name: "strides"
      ints: 1
      ints: 1
      type: INTS
    }
  }
  node {
    input: "Convolution2DFunction_66"
    output: "LeakyReLU_50"
    name: "LeakyReLU_50"
    op_type: "LeakyRelu"
    attribute {
      name: "alpha"
      f: 0.20000000298023224
      type: FLOAT
    }
  }
  node {
    input: "Add_15"
    input: "LeakyReLU_49"
    input: "LeakyReLU_50"
    output: "Concat_50"
    name: "Concat_50"
    op_type: "Concat"
    attribute {
      name: "axis"
      i: 1
      type: INT
    }
  }
  node {
    input: "Concat_50"
    input: "param_residual_network_8_residual_dense_block1_conv_layer3_W"
    input: "param_residual_network_8_residual_dense_block1_conv_layer3_b"
    output: "Convolution2DFunction_67"
    name: "Convolution2DFunction_67"
    op_type: "Conv"
    attribute {
      name: "dilations"
      ints: 1
      ints: 1
      type: INTS
    }
    attribute {
      name: "group"
      i: 1
      type: INT
    }
    attribute {
      name: "kernel_shape"
      ints: 3
      ints: 3
      type: INTS
    }
    attribute {
      name: "pads"
      ints: 1
      ints: 1
      ints: 1
      ints: 1
      type: INTS
    }
    attribute {
      name: "strides"
      ints: 1
      ints: 1
      type: INTS
    }
  }
  node {
    input: "Convolution2DFunction_67"
    output: "LeakyReLU_51"
    name: "LeakyReLU_51"
    op_type: "LeakyRelu"
    attribute {
      name: "alpha"
      f: 0.20000000298023224
      type: FLOAT
    }
  }
  node {
    input: "Add_15"
    input: "LeakyReLU_49"
    input: "LeakyReLU_50"
    input: "LeakyReLU_51"
    output: "Concat_51"
    name: "Concat_51"
    op_type: "Concat"
    attribute {
      name: "axis"
      i: 1
      type: INT
    }
  }
  node {
    input: "Concat_51"
    input: "param_residual_network_8_residual_dense_block1_conv_layer4_W"
    input: "param_residual_network_8_residual_dense_block1_conv_layer4_b"
    output: "Convolution2DFunction_68"
    name: "Convolution2DFunction_68"
    op_type: "Conv"
    attribute {
      name: "dilations"
      ints: 1
      ints: 1
      type: INTS
    }
    attribute {
      name: "group"
      i: 1
      type: INT
    }
    attribute {
      name: "kernel_shape"
      ints: 3
      ints: 3
      type: INTS
    }
    attribute {
      name: "pads"
      ints: 1
      ints: 1
      ints: 1
      ints: 1
      type: INTS
    }
    attribute {
      name: "strides"
      ints: 1
      ints: 1
      type: INTS
    }
  }
  node {
    input: "Convolution2DFunction_68"
    output: "LeakyReLU_52"
    name: "LeakyReLU_52"
    op_type: "LeakyRelu"
    attribute {
      name: "alpha"
      f: 0.20000000298023224
      type: FLOAT
    }
  }
  node {
    input: "Add_15"
    input: "LeakyReLU_49"
    input: "LeakyReLU_50"
    input: "LeakyReLU_51"
    input: "LeakyReLU_52"
    output: "Concat_52"
    name: "Concat_52"
    op_type: "Concat"
    attribute {
      name: "axis"
      i: 1
      type: INT
    }
  }
  node {
    input: "Concat_52"
    input: "param_residual_network_8_residual_dense_block1_conv_layer5_W"
    input: "param_residual_network_8_residual_dense_block1_conv_layer5_b"
    output: "Convolution2DFunction_69"
    name: "Convolution2DFunction_69"
    op_type: "Conv"
    attribute {
      name: "dilations"
      ints: 1
      ints: 1
      type: INTS
    }
    attribute {
      name: "group"
      i: 1
      type: INT
    }
    attribute {
      name: "kernel_shape"
      ints: 3
      ints: 3
      type: INTS
    }
    attribute {
      name: "pads"
      ints: 1
      ints: 1
      ints: 1
      ints: 1
      type: INTS
    }
    attribute {
      name: "strides"
      ints: 1
      ints: 1
      type: INTS
    }
  }
  node {
    input: "Convolution2DFunction_69"
    input: "v1011"
    output: "MulConstant_16"
    name: "MulConstant_16"
    op_type: "Mul"
  }
  node {
    input: "MulConstant_16"
    input: "Add_15"
    output: "Add_16"
    name: "Add_16"
    op_type: "Add"
  }
  node {
    input: "Add_16"
    input: "param_residual_network_8_residual_dense_block2_conv_layer1_W"
    input: "param_residual_network_8_residual_dense_block2_conv_layer1_b"
    output: "Convolution2DFunction_70"
    name: "Convolution2DFunction_70"
    op_type: "Conv"
    attribute {
      name: "dilations"
      ints: 1
      ints: 1
      type: INTS
    }
    attribute {
      name: "group"
      i: 1
      type: INT
    }
    attribute {
      name: "kernel_shape"
      ints: 3
      ints: 3
      type: INTS
    }
    attribute {
      name: "pads"
      ints: 1
      ints: 1
      ints: 1
      ints: 1
      type: INTS
    }
    attribute {
      name: "strides"
      ints: 1
      ints: 1
      type: INTS
    }
  }
  node {
    input: "Convolution2DFunction_70"
    output: "LeakyReLU_53"
    name: "LeakyReLU_53"
    op_type: "LeakyRelu"
    attribute {
      name: "alpha"
      f: 0.20000000298023224
      type: FLOAT
    }
  }
  node {
    input: "Add_16"
    input: "LeakyReLU_53"
    output: "Concat_53"
    name: "Concat_53"
    op_type: "Concat"
    attribute {
      name: "axis"
      i: 1
      type: INT
    }
  }
  node {
    input: "Concat_53"
    input: "param_residual_network_8_residual_dense_block2_conv_layer2_W"
    input: "param_residual_network_8_residual_dense_block2_conv_layer2_b"
    output: "Convolution2DFunction_71"
    name: "Convolution2DFunction_71"
    op_type: "Conv"
    attribute {
      name: "dilations"
      ints: 1
      ints: 1
      type: INTS
    }
    attribute {
      name: "group"
      i: 1
      type: INT
    }
    attribute {
      name: "kernel_shape"
      ints: 3
      ints: 3
      type: INTS
    }
    attribute {
      name: "pads"
      ints: 1
      ints: 1
      ints: 1
      ints: 1
      type: INTS
    }
    attribute {
      name: "strides"
      ints: 1
      ints: 1
      type: INTS
    }
  }
  node {
    input: "Convolution2DFunction_71"
    output: "LeakyReLU_54"
    name: "LeakyReLU_54"
    op_type: "LeakyRelu"
    attribute {
      name: "alpha"
      f: 0.20000000298023224
      type: FLOAT
    }
  }
  node {
    input: "Add_16"
    input: "LeakyReLU_53"
    input: "LeakyReLU_54"
    output: "Concat_54"
    name: "Concat_54"
    op_type: "Concat"
    attribute {
      name: "axis"
      i: 1
      type: INT
    }
  }
  node {
    input: "Concat_54"
    input: "param_residual_network_8_residual_dense_block2_conv_layer3_W"
    input: "param_residual_network_8_residual_dense_block2_conv_layer3_b"
    output: "Convolution2DFunction_72"
    name: "Convolution2DFunction_72"
    op_type: "Conv"
    attribute {
      name: "dilations"
      ints: 1
      ints: 1
      type: INTS
    }
    attribute {
      name: "group"
      i: 1
      type: INT
    }
    attribute {
      name: "kernel_shape"
      ints: 3
      ints: 3
      type: INTS
    }
    attribute {
      name: "pads"
      ints: 1
      ints: 1
      ints: 1
      ints: 1
      type: INTS
    }
    attribute {
      name: "strides"
      ints: 1
      ints: 1
      type: INTS
    }
  }
  node {
    input: "Convolution2DFunction_72"
    output: "LeakyReLU_55"
    name: "LeakyReLU_55"
    op_type: "LeakyRelu"
    attribute {
      name: "alpha"
      f: 0.20000000298023224
      type: FLOAT
    }
  }
  node {
    input: "Add_16"
    input: "LeakyReLU_53"
    input: "LeakyReLU_54"
    input: "LeakyReLU_55"
    output: "Concat_55"
    name: "Concat_55"
    op_type: "Concat"
    attribute {
      name: "axis"
      i: 1
      type: INT
    }
  }
  node {
    input: "Concat_55"
    input: "param_residual_network_8_residual_dense_block2_conv_layer4_W"
    input: "param_residual_network_8_residual_dense_block2_conv_layer4_b"
    output: "Convolution2DFunction_73"
    name: "Convolution2DFunction_73"
    op_type: "Conv"
    attribute {
      name: "dilations"
      ints: 1
      ints: 1
      type: INTS
    }
    attribute {
      name: "group"
      i: 1
      type: INT
    }
    attribute {
      name: "kernel_shape"
      ints: 3
      ints: 3
      type: INTS
    }
    attribute {
      name: "pads"
      ints: 1
      ints: 1
      ints: 1
      ints: 1
      type: INTS
    }
    attribute {
      name: "strides"
      ints: 1
      ints: 1
      type: INTS
    }
  }
  node {
    input: "Convolution2DFunction_73"
    output: "LeakyReLU_56"
    name: "LeakyReLU_56"
    op_type: "LeakyRelu"
    attribute {
      name: "alpha"
      f: 0.20000000298023224
      type: FLOAT
    }
  }
  node {
    input: "Add_16"
    input: "LeakyReLU_53"
    input: "LeakyReLU_54"
    input: "LeakyReLU_55"
    input: "LeakyReLU_56"
    output: "Concat_56"
    name: "Concat_56"
    op_type: "Concat"
    attribute {
      name: "axis"
      i: 1
      type: INT
    }
  }
  node {
    input: "Concat_56"
    input: "param_residual_network_8_residual_dense_block2_conv_layer5_W"
    input: "param_residual_network_8_residual_dense_block2_conv_layer5_b"
    output: "Convolution2DFunction_74"
    name: "Convolution2DFunction_74"
    op_type: "Conv"
    attribute {
      name: "dilations"
      ints: 1
      ints: 1
      type: INTS
    }
    attribute {
      name: "group"
      i: 1
      type: INT
    }
    attribute {
      name: "kernel_shape"
      ints: 3
      ints: 3
      type: INTS
    }
    attribute {
      name: "pads"
      ints: 1
      ints: 1
      ints: 1
      ints: 1
      type: INTS
    }
    attribute {
      name: "strides"
      ints: 1
      ints: 1
      type: INTS
    }
  }
  node {
    input: "Convolution2DFunction_74"
    input: "v1028"
    output: "MulConstant_17"
    name: "MulConstant_17"
    op_type: "Mul"
  }
  node {
    input: "MulConstant_17"
    input: "Add_16"
    output: "Add_17"
    name: "Add_17"
    op_type: "Add"
  }
  node {
    input: "Add_17"
    input: "param_residual_network_8_residual_dense_block3_conv_layer1_W"
    input: "param_residual_network_8_residual_dense_block3_conv_layer1_b"
    output: "Convolution2DFunction_75"
    name: "Convolution2DFunction_75"
    op_type: "Conv"
    attribute {
      name: "dilations"
      ints: 1
      ints: 1
      type: INTS
    }
    attribute {
      name: "group"
      i: 1
      type: INT
    }
    attribute {
      name: "kernel_shape"
      ints: 3
      ints: 3
      type: INTS
    }
    attribute {
      name: "pads"
      ints: 1
      ints: 1
      ints: 1
      ints: 1
      type: INTS
    }
    attribute {
      name: "strides"
      ints: 1
      ints: 1
      type: INTS
    }
  }
  node {
    input: "Convolution2DFunction_75"
    output: "LeakyReLU_57"
    name: "LeakyReLU_57"
    op_type: "LeakyRelu"
    attribute {
      name: "alpha"
      f: 0.20000000298023224
      type: FLOAT
    }
  }
  node {
    input: "Add_17"
    input: "LeakyReLU_57"
    output: "Concat_57"
    name: "Concat_57"
    op_type: "Concat"
    attribute {
      name: "axis"
      i: 1
      type: INT
    }
  }
  node {
    input: "Concat_57"
    input: "param_residual_network_8_residual_dense_block3_conv_layer2_W"
    input: "param_residual_network_8_residual_dense_block3_conv_layer2_b"
    output: "Convolution2DFunction_76"
    name: "Convolution2DFunction_76"
    op_type: "Conv"
    attribute {
      name: "dilations"
      ints: 1
      ints: 1
      type: INTS
    }
    attribute {
      name: "group"
      i: 1
      type: INT
    }
    attribute {
      name: "kernel_shape"
      ints: 3
      ints: 3
      type: INTS
    }
    attribute {
      name: "pads"
      ints: 1
      ints: 1
      ints: 1
      ints: 1
      type: INTS
    }
    attribute {
      name: "strides"
      ints: 1
      ints: 1
      type: INTS
    }
  }
  node {
    input: "Convolution2DFunction_76"
    output: "LeakyReLU_58"
    name: "LeakyReLU_58"
    op_type: "LeakyRelu"
    attribute {
      name: "alpha"
      f: 0.20000000298023224
      type: FLOAT
    }
  }
  node {
    input: "Add_17"
    input: "LeakyReLU_57"
    input: "LeakyReLU_58"
    output: "Concat_58"
    name: "Concat_58"
    op_type: "Concat"
    attribute {
      name: "axis"
      i: 1
      type: INT
    }
  }
  node {
    input: "Concat_58"
    input: "param_residual_network_8_residual_dense_block3_conv_layer3_W"
    input: "param_residual_network_8_residual_dense_block3_conv_layer3_b"
    output: "Convolution2DFunction_77"
    name: "Convolution2DFunction_77"
    op_type: "Conv"
    attribute {
      name: "dilations"
      ints: 1
      ints: 1
      type: INTS
    }
    attribute {
      name: "group"
      i: 1
      type: INT
    }
    attribute {
      name: "kernel_shape"
      ints: 3
      ints: 3
      type: INTS
    }
    attribute {
      name: "pads"
      ints: 1
      ints: 1
      ints: 1
      ints: 1
      type: INTS
    }
    attribute {
      name: "strides"
      ints: 1
      ints: 1
      type: INTS
    }
  }
  node {
    input: "Convolution2DFunction_77"
    output: "LeakyReLU_59"
    name: "LeakyReLU_59"
    op_type: "LeakyRelu"
    attribute {
      name: "alpha"
      f: 0.20000000298023224
      type: FLOAT
    }
  }
  node {
    input: "Add_17"
    input: "LeakyReLU_57"
    input: "LeakyReLU_58"
    input: "LeakyReLU_59"
    output: "Concat_59"
    name: "Concat_59"
    op_type: "Concat"
    attribute {
      name: "axis"
      i: 1
      type: INT
    }
  }
  node {
    input: "Concat_59"
    input: "param_residual_network_8_residual_dense_block3_conv_layer4_W"
    input: "param_residual_network_8_residual_dense_block3_conv_layer4_b"
    output: "Convolution2DFunction_78"
    name: "Convolution2DFunction_78"
    op_type: "Conv"
    attribute {
      name: "dilations"
      ints: 1
      ints: 1
      type: INTS
    }
    attribute {
      name: "group"
      i: 1
      type: INT
    }
    attribute {
      name: "kernel_shape"
      ints: 3
      ints: 3
      type: INTS
    }
    attribute {
      name: "pads"
      ints: 1
      ints: 1
      ints: 1
      ints: 1
      type: INTS
    }
    attribute {
      name: "strides"
      ints: 1
      ints: 1
      type: INTS
    }
  }
  node {
    input: "Convolution2DFunction_78"
    output: "LeakyReLU_60"
    name: "LeakyReLU_60"
    op_type: "LeakyRelu"
    attribute {
      name: "alpha"
      f: 0.20000000298023224
      type: FLOAT
    }
  }
  node {
    input: "Add_17"
    input: "LeakyReLU_57"
    input: "LeakyReLU_58"
    input: "LeakyReLU_59"
    input: "LeakyReLU_60"
    output: "Concat_60"
    name: "Concat_60"
    op_type: "Concat"
    attribute {
      name: "axis"
      i: 1
      type: INT
    }
  }
  node {
    input: "Concat_60"
    input: "param_residual_network_8_residual_dense_block3_conv_layer5_W"
    input: "param_residual_network_8_residual_dense_block3_conv_layer5_b"
    output: "Convolution2DFunction_79"
    name: "Convolution2DFunction_79"
    op_type: "Conv"
    attribute {
      name: "dilations"
      ints: 1
      ints: 1
      type: INTS
    }
    attribute {
      name: "group"
      i: 1
      type: INT
    }
    attribute {
      name: "kernel_shape"
      ints: 3
      ints: 3
      type: INTS
    }
    attribute {
      name: "pads"
      ints: 1
      ints: 1
      ints: 1
      ints: 1
      type: INTS
    }
    attribute {
      name: "strides"
      ints: 1
      ints: 1
      type: INTS
    }
  }
  node {
    input: "Convolution2DFunction_79"
    input: "v1045"
    output: "MulConstant_18"
    name: "MulConstant_18"
    op_type: "Mul"
  }
  node {
    input: "MulConstant_18"
    input: "Add_17"
    output: "Add_18"
    name: "Add_18"
    op_type: "Add"
  }
  node {
    input: "Add_18"
    input: "v1049"
    output: "MulConstant_19"
    name: "MulConstant_19"
    op_type: "Mul"
  }
  node {
    input: "MulConstant_19"
    input: "Add_15"
    output: "Add_19"
    name: "Add_19"
    op_type: "Add"
  }
  node {
    input: "Add_19"
    input: "param_residual_network_7_residual_dense_block1_conv_layer1_W"
    input: "param_residual_network_7_residual_dense_block1_conv_layer1_b"
    output: "Convolution2DFunction_80"
    name: "Convolution2DFunction_80"
    op_type: "Conv"
    attribute {
      name: "dilations"
      ints: 1
      ints: 1
      type: INTS
    }
    attribute {
      name: "group"
      i: 1
      type: INT
    }
    attribute {
      name: "kernel_shape"
      ints: 3
      ints: 3
      type: INTS
    }
    attribute {
      name: "pads"
      ints: 1
      ints: 1
      ints: 1
      ints: 1
      type: INTS
    }
    attribute {
      name: "strides"
      ints: 1
      ints: 1
      type: INTS
    }
  }
  node {
    input: "Convolution2DFunction_80"
    output: "LeakyReLU_61"
    name: "LeakyReLU_61"
    op_type: "LeakyRelu"
    attribute {
      name: "alpha"
      f: 0.20000000298023224
      type: FLOAT
    }
  }
  node {
    input: "Add_19"
    input: "LeakyReLU_61"
    output: "Concat_61"
    name: "Concat_61"
    op_type: "Concat"
    attribute {
      name: "axis"
      i: 1
      type: INT
    }
  }
  node {
    input: "Concat_61"
    input: "param_residual_network_7_residual_dense_block1_conv_layer2_W"
    input: "param_residual_network_7_residual_dense_block1_conv_layer2_b"
    output: "Convolution2DFunction_81"
    name: "Convolution2DFunction_81"
    op_type: "Conv"
    attribute {
      name: "dilations"
      ints: 1
      ints: 1
      type: INTS
    }
    attribute {
      name: "group"
      i: 1
      type: INT
    }
    attribute {
      name: "kernel_shape"
      ints: 3
      ints: 3
      type: INTS
    }
    attribute {
      name: "pads"
      ints: 1
      ints: 1
      ints: 1
      ints: 1
      type: INTS
    }
    attribute {
      name: "strides"
      ints: 1
      ints: 1
      type: INTS
    }
  }
  node {
    input: "Convolution2DFunction_81"
    output: "LeakyReLU_62"
    name: "LeakyReLU_62"
    op_type: "LeakyRelu"
    attribute {
      name: "alpha"
      f: 0.20000000298023224
      type: FLOAT
    }
  }
  node {
    input: "Add_19"
    input: "LeakyReLU_61"
    input: "LeakyReLU_62"
    output: "Concat_62"
    name: "Concat_62"
    op_type: "Concat"
    attribute {
      name: "axis"
      i: 1
      type: INT
    }
  }
  node {
    input: "Concat_62"
    input: "param_residual_network_7_residual_dense_block1_conv_layer3_W"
    input: "param_residual_network_7_residual_dense_block1_conv_layer3_b"
    output: "Convolution2DFunction_82"
    name: "Convolution2DFunction_82"
    op_type: "Conv"
    attribute {
      name: "dilations"
      ints: 1
      ints: 1
      type: INTS
    }
    attribute {
      name: "group"
      i: 1
      type: INT
    }
    attribute {
      name: "kernel_shape"
      ints: 3
      ints: 3
      type: INTS
    }
    attribute {
      name: "pads"
      ints: 1
      ints: 1
      ints: 1
      ints: 1
      type: INTS
    }
    attribute {
      name: "strides"
      ints: 1
      ints: 1
      type: INTS
    }
  }
  node {
    input: "Convolution2DFunction_82"
    output: "LeakyReLU_63"
    name: "LeakyReLU_63"
    op_type: "LeakyRelu"
    attribute {
      name: "alpha"
      f: 0.20000000298023224
      type: FLOAT
    }
  }
  node {
    input: "Add_19"
    input: "LeakyReLU_61"
    input: "LeakyReLU_62"
    input: "LeakyReLU_63"
    output: "Concat_63"
    name: "Concat_63"
    op_type: "Concat"
    attribute {
      name: "axis"
      i: 1
      type: INT
    }
  }
  node {
    input: "Concat_63"
    input: "param_residual_network_7_residual_dense_block1_conv_layer4_W"
    input: "param_residual_network_7_residual_dense_block1_conv_layer4_b"
    output: "Convolution2DFunction_83"
    name: "Convolution2DFunction_83"
    op_type: "Conv"
    attribute {
      name: "dilations"
      ints: 1
      ints: 1
      type: INTS
    }
    attribute {
      name: "group"
      i: 1
      type: INT
    }
    attribute {
      name: "kernel_shape"
      ints: 3
      ints: 3
      type: INTS
    }
    attribute {
      name: "pads"
      ints: 1
      ints: 1
      ints: 1
      ints: 1
      type: INTS
    }
    attribute {
      name: "strides"
      ints: 1
      ints: 1
      type: INTS
    }
  }
  node {
    input: "Convolution2DFunction_83"
    output: "LeakyReLU_64"
    name: "LeakyReLU_64"
    op_type: "LeakyRelu"
    attribute {
      name: "alpha"
      f: 0.20000000298023224
      type: FLOAT
    }
  }
  node {
    input: "Add_19"
    input: "LeakyReLU_61"
    input: "LeakyReLU_62"
    input: "LeakyReLU_63"
    input: "LeakyReLU_64"
    output: "Concat_64"
    name: "Concat_64"
    op_type: "Concat"
    attribute {
      name: "axis"
      i: 1
      type: INT
    }
  }
  node {
    input: "Concat_64"
    input: "param_residual_network_7_residual_dense_block1_conv_layer5_W"
    input: "param_residual_network_7_residual_dense_block1_conv_layer5_b"
    output: "Convolution2DFunction_84"
    name: "Convolution2DFunction_84"
    op_type: "Conv"
    attribute {
      name: "dilations"
      ints: 1
      ints: 1
      type: INTS
    }
    attribute {
      name: "group"
      i: 1
      type: INT
    }
    attribute {
      name: "kernel_shape"
      ints: 3
      ints: 3
      type: INTS
    }
    attribute {
      name: "pads"
      ints: 1
      ints: 1
      ints: 1
      ints: 1
      type: INTS
    }
    attribute {
      name: "strides"
      ints: 1
      ints: 1
      type: INTS
    }
  }
  node {
    input: "Convolution2DFunction_84"
    input: "v1066"
    output: "MulConstant_20"
    name: "MulConstant_20"
    op_type: "Mul"
  }
  node {
    input: "MulConstant_20"
    input: "Add_19"
    output: "Add_20"
    name: "Add_20"
    op_type: "Add"
  }
  node {
    input: "Add_20"
    input: "param_residual_network_7_residual_dense_block2_conv_layer1_W"
    input: "param_residual_network_7_residual_dense_block2_conv_layer1_b"
    output: "Convolution2DFunction_85"
    name: "Convolution2DFunction_85"
    op_type: "Conv"
    attribute {
      name: "dilations"
      ints: 1
      ints: 1
      type: INTS
    }
    attribute {
      name: "group"
      i: 1
      type: INT
    }
    attribute {
      name: "kernel_shape"
      ints: 3
      ints: 3
      type: INTS
    }
    attribute {
      name: "pads"
      ints: 1
      ints: 1
      ints: 1
      ints: 1
      type: INTS
    }
    attribute {
      name: "strides"
      ints: 1
      ints: 1
      type: INTS
    }
  }
  node {
    input: "Convolution2DFunction_85"
    output: "LeakyReLU_65"
    name: "LeakyReLU_65"
    op_type: "LeakyRelu"
    attribute {
      name: "alpha"
      f: 0.20000000298023224
      type: FLOAT
    }
  }
  node {
    input: "Add_20"
    input: "LeakyReLU_65"
    output: "Concat_65"
    name: "Concat_65"
    op_type: "Concat"
    attribute {
      name: "axis"
      i: 1
      type: INT
    }
  }
  node {
    input: "Concat_65"
    input: "param_residual_network_7_residual_dense_block2_conv_layer2_W"
    input: "param_residual_network_7_residual_dense_block2_conv_layer2_b"
    output: "Convolution2DFunction_86"
    name: "Convolution2DFunction_86"
    op_type: "Conv"
    attribute {
      name: "dilations"
      ints: 1
      ints: 1
      type: INTS
    }
    attribute {
      name: "group"
      i: 1
      type: INT
    }
    attribute {
      name: "kernel_shape"
      ints: 3
      ints: 3
      type: INTS
    }
    attribute {
      name: "pads"
      ints: 1
      ints: 1
      ints: 1
      ints: 1
      type: INTS
    }
    attribute {
      name: "strides"
      ints: 1
      ints: 1
      type: INTS
    }
  }
  node {
    input: "Convolution2DFunction_86"
    output: "LeakyReLU_66"
    name: "LeakyReLU_66"
    op_type: "LeakyRelu"
    attribute {
      name: "alpha"
      f: 0.20000000298023224
      type: FLOAT
    }
  }
  node {
    input: "Add_20"
    input: "LeakyReLU_65"
    input: "LeakyReLU_66"
    output: "Concat_66"
    name: "Concat_66"
    op_type: "Concat"
    attribute {
      name: "axis"
      i: 1
      type: INT
    }
  }
  node {
    input: "Concat_66"
    input: "param_residual_network_7_residual_dense_block2_conv_layer3_W"
    input: "param_residual_network_7_residual_dense_block2_conv_layer3_b"
    output: "Convolution2DFunction_87"
    name: "Convolution2DFunction_87"
    op_type: "Conv"
    attribute {
      name: "dilations"
      ints: 1
      ints: 1
      type: INTS
    }
    attribute {
      name: "group"
      i: 1
      type: INT
    }
    attribute {
      name: "kernel_shape"
      ints: 3
      ints: 3
      type: INTS
    }
    attribute {
      name: "pads"
      ints: 1
      ints: 1
      ints: 1
      ints: 1
      type: INTS
    }
    attribute {
      name: "strides"
      ints: 1
      ints: 1
      type: INTS
    }
  }
  node {
    input: "Convolution2DFunction_87"
    output: "LeakyReLU_67"
    name: "LeakyReLU_67"
    op_type: "LeakyRelu"
    attribute {
      name: "alpha"
      f: 0.20000000298023224
      type: FLOAT
    }
  }
  node {
    input: "Add_20"
    input: "LeakyReLU_65"
    input: "LeakyReLU_66"
    input: "LeakyReLU_67"
    output: "Concat_67"
    name: "Concat_67"
    op_type: "Concat"
    attribute {
      name: "axis"
      i: 1
      type: INT
    }
  }
  node {
    input: "Concat_67"
    input: "param_residual_network_7_residual_dense_block2_conv_layer4_W"
    input: "param_residual_network_7_residual_dense_block2_conv_layer4_b"
    output: "Convolution2DFunction_88"
    name: "Convolution2DFunction_88"
    op_type: "Conv"
    attribute {
      name: "dilations"
      ints: 1
      ints: 1
      type: INTS
    }
    attribute {
      name: "group"
      i: 1
      type: INT
    }
    attribute {
      name: "kernel_shape"
      ints: 3
      ints: 3
      type: INTS
    }
    attribute {
      name: "pads"
      ints: 1
      ints: 1
      ints: 1
      ints: 1
      type: INTS
    }
    attribute {
      name: "strides"
      ints: 1
      ints: 1
      type: INTS
    }
  }
  node {
    input: "Convolution2DFunction_88"
    output: "LeakyReLU_68"
    name: "LeakyReLU_68"
    op_type: "LeakyRelu"
    attribute {
      name: "alpha"
      f: 0.20000000298023224
      type: FLOAT
    }
  }
  node {
    input: "Add_20"
    input: "LeakyReLU_65"
    input: "LeakyReLU_66"
    input: "LeakyReLU_67"
    input: "LeakyReLU_68"
    output: "Concat_68"
    name: "Concat_68"
    op_type: "Concat"
    attribute {
      name: "axis"
      i: 1
      type: INT
    }
  }
  node {
    input: "Concat_68"
    input: "param_residual_network_7_residual_dense_block2_conv_layer5_W"
    input: "param_residual_network_7_residual_dense_block2_conv_layer5_b"
    output: "Convolution2DFunction_89"
    name: "Convolution2DFunction_89"
    op_type: "Conv"
    attribute {
      name: "dilations"
      ints: 1
      ints: 1
      type: INTS
    }
    attribute {
      name: "group"
      i: 1
      type: INT
    }
    attribute {
      name: "kernel_shape"
      ints: 3
      ints: 3
      type: INTS
    }
    attribute {
      name: "pads"
      ints: 1
      ints: 1
      ints: 1
      ints: 1
      type: INTS
    }
    attribute {
      name: "strides"
      ints: 1
      ints: 1
      type: INTS
    }
  }
  node {
    input: "Convolution2DFunction_89"
    input: "v1083"
    output: "MulConstant_21"
    name: "MulConstant_21"
    op_type: "Mul"
  }
  node {
    input: "MulConstant_21"
    input: "Add_20"
    output: "Add_21"
    name: "Add_21"
    op_type: "Add"
  }
  node {
    input: "Add_21"
    input: "param_residual_network_7_residual_dense_block3_conv_layer1_W"
    input: "param_residual_network_7_residual_dense_block3_conv_layer1_b"
    output: "Convolution2DFunction_90"
    name: "Convolution2DFunction_90"
    op_type: "Conv"
    attribute {
      name: "dilations"
      ints: 1
      ints: 1
      type: INTS
    }
    attribute {
      name: "group"
      i: 1
      type: INT
    }
    attribute {
      name: "kernel_shape"
      ints: 3
      ints: 3
      type: INTS
    }
    attribute {
      name: "pads"
      ints: 1
      ints: 1
      ints: 1
      ints: 1
      type: INTS
    }
    attribute {
      name: "strides"
      ints: 1
      ints: 1
      type: INTS
    }
  }
  node {
    input: "Convolution2DFunction_90"
    output: "LeakyReLU_69"
    name: "LeakyReLU_69"
    op_type: "LeakyRelu"
    attribute {
      name: "alpha"
      f: 0.20000000298023224
      type: FLOAT
    }
  }
  node {
    input: "Add_21"
    input: "LeakyReLU_69"
    output: "Concat_69"
    name: "Concat_69"
    op_type: "Concat"
    attribute {
      name: "axis"
      i: 1
      type: INT
    }
  }
  node {
    input: "Concat_69"
    input: "param_residual_network_7_residual_dense_block3_conv_layer2_W"
    input: "param_residual_network_7_residual_dense_block3_conv_layer2_b"
    output: "Convolution2DFunction_91"
    name: "Convolution2DFunction_91"
    op_type: "Conv"
    attribute {
      name: "dilations"
      ints: 1
      ints: 1
      type: INTS
    }
    attribute {
      name: "group"
      i: 1
      type: INT
    }
    attribute {
      name: "kernel_shape"
      ints: 3
      ints: 3
      type: INTS
    }
    attribute {
      name: "pads"
      ints: 1
      ints: 1
      ints: 1
      ints: 1
      type: INTS
    }
    attribute {
      name: "strides"
      ints: 1
      ints: 1
      type: INTS
    }
  }
  node {
    input: "Convolution2DFunction_91"
    output: "LeakyReLU_70"
    name: "LeakyReLU_70"
    op_type: "LeakyRelu"
    attribute {
      name: "alpha"
      f: 0.20000000298023224
      type: FLOAT
    }
  }
  node {
    input: "Add_21"
    input: "LeakyReLU_69"
    input: "LeakyReLU_70"
    output: "Concat_70"
    name: "Concat_70"
    op_type: "Concat"
    attribute {
      name: "axis"
      i: 1
      type: INT
    }
  }
  node {
    input: "Concat_70"
    input: "param_residual_network_7_residual_dense_block3_conv_layer3_W"
    input: "param_residual_network_7_residual_dense_block3_conv_layer3_b"
    output: "Convolution2DFunction_92"
    name: "Convolution2DFunction_92"
    op_type: "Conv"
    attribute {
      name: "dilations"
      ints: 1
      ints: 1
      type: INTS
    }
    attribute {
      name: "group"
      i: 1
      type: INT
    }
    attribute {
      name: "kernel_shape"
      ints: 3
      ints: 3
      type: INTS
    }
    attribute {
      name: "pads"
      ints: 1
      ints: 1
      ints: 1
      ints: 1
      type: INTS
    }
    attribute {
      name: "strides"
      ints: 1
      ints: 1
      type: INTS
    }
  }
  node {
    input: "Convolution2DFunction_92"
    output: "LeakyReLU_71"
    name: "LeakyReLU_71"
    op_type: "LeakyRelu"
    attribute {
      name: "alpha"
      f: 0.20000000298023224
      type: FLOAT
    }
  }
  node {
    input: "Add_21"
    input: "LeakyReLU_69"
    input: "LeakyReLU_70"
    input: "LeakyReLU_71"
    output: "Concat_71"
    name: "Concat_71"
    op_type: "Concat"
    attribute {
      name: "axis"
      i: 1
      type: INT
    }
  }
  node {
    input: "Concat_71"
    input: "param_residual_network_7_residual_dense_block3_conv_layer4_W"
    input: "param_residual_network_7_residual_dense_block3_conv_layer4_b"
    output: "Convolution2DFunction_93"
    name: "Convolution2DFunction_93"
    op_type: "Conv"
    attribute {
      name: "dilations"
      ints: 1
      ints: 1
      type: INTS
    }
    attribute {
      name: "group"
      i: 1
      type: INT
    }
    attribute {
      name: "kernel_shape"
      ints: 3
      ints: 3
      type: INTS
    }
    attribute {
      name: "pads"
      ints: 1
      ints: 1
      ints: 1
      ints: 1
      type: INTS
    }
    attribute {
      name: "strides"
      ints: 1
      ints: 1
      type: INTS
    }
  }
  node {
    input: "Convolution2DFunction_93"
    output: "LeakyReLU_72"
    name: "LeakyReLU_72"
    op_type: "LeakyRelu"
    attribute {
      name: "alpha"
      f: 0.20000000298023224
      type: FLOAT
    }
  }
  node {
    input: "Add_21"
    input: "LeakyReLU_69"
    input: "LeakyReLU_70"
    input: "LeakyReLU_71"
    input: "LeakyReLU_72"
    output: "Concat_72"
    name: "Concat_72"
    op_type: "Concat"
    attribute {
      name: "axis"
      i: 1
      type: INT
    }
  }
  node {
    input: "Concat_72"
    input: "param_residual_network_7_residual_dense_block3_conv_layer5_W"
    input: "param_residual_network_7_residual_dense_block3_conv_layer5_b"
    output: "Convolution2DFunction_94"
    name: "Convolution2DFunction_94"
    op_type: "Conv"
    attribute {
      name: "dilations"
      ints: 1
      ints: 1
      type: INTS
    }
    attribute {
      name: "group"
      i: 1
      type: INT
    }
    attribute {
      name: "kernel_shape"
      ints: 3
      ints: 3
      type: INTS
    }
    attribute {
      name: "pads"
      ints: 1
      ints: 1
      ints: 1
      ints: 1
      type: INTS
    }
    attribute {
      name: "strides"
      ints: 1
      ints: 1
      type: INTS
    }
  }
  node {
    input: "Convolution2DFunction_94"
    input: "v1100"
    output: "MulConstant_22"
    name: "MulConstant_22"
    op_type: "Mul"
  }
  node {
    input: "MulConstant_22"
    input: "Add_21"
    output: "Add_22"
    name: "Add_22"
    op_type: "Add"
  }
  node {
    input: "Add_22"
    input: "v1104"
    output: "MulConstant_23"
    name: "MulConstant_23"
    op_type: "Mul"
  }
  node {
    input: "MulConstant_23"
    input: "Add_19"
    output: "Add_23"
    name: "Add_23"
    op_type: "Add"
  }
  node {
    input: "Add_23"
    input: "param_residual_network_6_residual_dense_block1_conv_layer1_W"
    input: "param_residual_network_6_residual_dense_block1_conv_layer1_b"
    output: "Convolution2DFunction_95"
    name: "Convolution2DFunction_95"
    op_type: "Conv"
    attribute {
      name: "dilations"
      ints: 1
      ints: 1
      type: INTS
    }
    attribute {
      name: "group"
      i: 1
      type: INT
    }
    attribute {
      name: "kernel_shape"
      ints: 3
      ints: 3
      type: INTS
    }
    attribute {
      name: "pads"
      ints: 1
      ints: 1
      ints: 1
      ints: 1
      type: INTS
    }
    attribute {
      name: "strides"
      ints: 1
      ints: 1
      type: INTS
    }
  }
  node {
    input: "Convolution2DFunction_95"
    output: "LeakyReLU_73"
    name: "LeakyReLU_73"
    op_type: "LeakyRelu"
    attribute {
      name: "alpha"
      f: 0.20000000298023224
      type: FLOAT
    }
  }
  node {
    input: "Add_23"
    input: "LeakyReLU_73"
    output: "Concat_73"
    name: "Concat_73"
    op_type: "Concat"
    attribute {
      name: "axis"
      i: 1
      type: INT
    }
  }
  node {
    input: "Concat_73"
    input: "param_residual_network_6_residual_dense_block1_conv_layer2_W"
    input: "param_residual_network_6_residual_dense_block1_conv_layer2_b"
    output: "Convolution2DFunction_96"
    name: "Convolution2DFunction_96"
    op_type: "Conv"
    attribute {
      name: "dilations"
      ints: 1
      ints: 1
      type: INTS
    }
    attribute {
      name: "group"
      i: 1
      type: INT
    }
    attribute {
      name: "kernel_shape"
      ints: 3
      ints: 3
      type: INTS
    }
    attribute {
      name: "pads"
      ints: 1
      ints: 1
      ints: 1
      ints: 1
      type: INTS
    }
    attribute {
      name: "strides"
      ints: 1
      ints: 1
      type: INTS
    }
  }
  node {
    input: "Convolution2DFunction_96"
    output: "LeakyReLU_74"
    name: "LeakyReLU_74"
    op_type: "LeakyRelu"
    attribute {
      name: "alpha"
      f: 0.20000000298023224
      type: FLOAT
    }
  }
  node {
    input: "Add_23"
    input: "LeakyReLU_73"
    input: "LeakyReLU_74"
    output: "Concat_74"
    name: "Concat_74"
    op_type: "Concat"
    attribute {
      name: "axis"
      i: 1
      type: INT
    }
  }
  node {
    input: "Concat_74"
    input: "param_residual_network_6_residual_dense_block1_conv_layer3_W"
    input: "param_residual_network_6_residual_dense_block1_conv_layer3_b"
    output: "Convolution2DFunction_97"
    name: "Convolution2DFunction_97"
    op_type: "Conv"
    attribute {
      name: "dilations"
      ints: 1
      ints: 1
      type: INTS
    }
    attribute {
      name: "group"
      i: 1
      type: INT
    }
    attribute {
      name: "kernel_shape"
      ints: 3
      ints: 3
      type: INTS
    }
    attribute {
      name: "pads"
      ints: 1
      ints: 1
      ints: 1
      ints: 1
      type: INTS
    }
    attribute {
      name: "strides"
      ints: 1
      ints: 1
      type: INTS
    }
  }
  node {
    input: "Convolution2DFunction_97"
    output: "LeakyReLU_75"
    name: "LeakyReLU_75"
    op_type: "LeakyRelu"
    attribute {
      name: "alpha"
      f: 0.20000000298023224
      type: FLOAT
    }
  }
  node {
    input: "Add_23"
    input: "LeakyReLU_73"
    input: "LeakyReLU_74"
    input: "LeakyReLU_75"
    output: "Concat_75"
    name: "Concat_75"
    op_type: "Concat"
    attribute {
      name: "axis"
      i: 1
      type: INT
    }
  }
  node {
    input: "Concat_75"
    input: "param_residual_network_6_residual_dense_block1_conv_layer4_W"
    input: "param_residual_network_6_residual_dense_block1_conv_layer4_b"
    output: "Convolution2DFunction_98"
    name: "Convolution2DFunction_98"
    op_type: "Conv"
    attribute {
      name: "dilations"
      ints: 1
      ints: 1
      type: INTS
    }
    attribute {
      name: "group"
      i: 1
      type: INT
    }
    attribute {
      name: "kernel_shape"
      ints: 3
      ints: 3
      type: INTS
    }
    attribute {
      name: "pads"
      ints: 1
      ints: 1
      ints: 1
      ints: 1
      type: INTS
    }
    attribute {
      name: "strides"
      ints: 1
      ints: 1
      type: INTS
    }
  }
  node {
    input: "Convolution2DFunction_98"
    output: "LeakyReLU_76"
    name: "LeakyReLU_76"
    op_type: "LeakyRelu"
    attribute {
      name: "alpha"
      f: 0.20000000298023224
      type: FLOAT
    }
  }
  node {
    input: "Add_23"
    input: "LeakyReLU_73"
    input: "LeakyReLU_74"
    input: "LeakyReLU_75"
    input: "LeakyReLU_76"
    output: "Concat_76"
    name: "Concat_76"
    op_type: "Concat"
    attribute {
      name: "axis"
      i: 1
      type: INT
    }
  }
  node {
    input: "Concat_76"
    input: "param_residual_network_6_residual_dense_block1_conv_layer5_W"
    input: "param_residual_network_6_residual_dense_block1_conv_layer5_b"
    output: "Convolution2DFunction_99"
    name: "Convolution2DFunction_99"
    op_type: "Conv"
    attribute {
      name: "dilations"
      ints: 1
      ints: 1
      type: INTS
    }
    attribute {
      name: "group"
      i: 1
      type: INT
    }
    attribute {
      name: "kernel_shape"
      ints: 3
      ints: 3
      type: INTS
    }
    attribute {
      name: "pads"
      ints: 1
      ints: 1
      ints: 1
      ints: 1
      type: INTS
    }
    attribute {
      name: "strides"
      ints: 1
      ints: 1
      type: INTS
    }
  }
  node {
    input: "Convolution2DFunction_99"
    input: "v1121"
    output: "MulConstant_24"
    name: "MulConstant_24"
    op_type: "Mul"
  }
  node {
    input: "MulConstant_24"
    input: "Add_23"
    output: "Add_24"
    name: "Add_24"
    op_type: "Add"
  }
  node {
    input: "Add_24"
    input: "param_residual_network_6_residual_dense_block2_conv_layer1_W"
    input: "param_residual_network_6_residual_dense_block2_conv_layer1_b"
    output: "Convolution2DFunction_100"
    name: "Convolution2DFunction_100"
    op_type: "Conv"
    attribute {
      name: "dilations"
      ints: 1
      ints: 1
      type: INTS
    }
    attribute {
      name: "group"
      i: 1
      type: INT
    }
    attribute {
      name: "kernel_shape"
      ints: 3
      ints: 3
      type: INTS
    }
    attribute {
      name: "pads"
      ints: 1
      ints: 1
      ints: 1
      ints: 1
      type: INTS
    }
    attribute {
      name: "strides"
      ints: 1
      ints: 1
      type: INTS
    }
  }
  node {
    input: "Convolution2DFunction_100"
    output: "LeakyReLU_77"
    name: "LeakyReLU_77"
    op_type: "LeakyRelu"
    attribute {
      name: "alpha"
      f: 0.20000000298023224
      type: FLOAT
    }
  }
  node {
    input: "Add_24"
    input: "LeakyReLU_77"
    output: "Concat_77"
    name: "Concat_77"
    op_type: "Concat"
    attribute {
      name: "axis"
      i: 1
      type: INT
    }
  }
  node {
    input: "Concat_77"
    input: "param_residual_network_6_residual_dense_block2_conv_layer2_W"
    input: "param_residual_network_6_residual_dense_block2_conv_layer2_b"
    output: "Convolution2DFunction_101"
    name: "Convolution2DFunction_101"
    op_type: "Conv"
    attribute {
      name: "dilations"
      ints: 1
      ints: 1
      type: INTS
    }
    attribute {
      name: "group"
      i: 1
      type: INT
    }
    attribute {
      name: "kernel_shape"
      ints: 3
      ints: 3
      type: INTS
    }
    attribute {
      name: "pads"
      ints: 1
      ints: 1
      ints: 1
      ints: 1
      type: INTS
    }
    attribute {
      name: "strides"
      ints: 1
      ints: 1
      type: INTS
    }
  }
  node {
    input: "Convolution2DFunction_101"
    output: "LeakyReLU_78"
    name: "LeakyReLU_78"
    op_type: "LeakyRelu"
    attribute {
      name: "alpha"
      f: 0.20000000298023224
      type: FLOAT
    }
  }
  node {
    input: "Add_24"
    input: "LeakyReLU_77"
    input: "LeakyReLU_78"
    output: "Concat_78"
    name: "Concat_78"
    op_type: "Concat"
    attribute {
      name: "axis"
      i: 1
      type: INT
    }
  }
  node {
    input: "Concat_78"
    input: "param_residual_network_6_residual_dense_block2_conv_layer3_W"
    input: "param_residual_network_6_residual_dense_block2_conv_layer3_b"
    output: "Convolution2DFunction_102"
    name: "Convolution2DFunction_102"
    op_type: "Conv"
    attribute {
      name: "dilations"
      ints: 1
      ints: 1
      type: INTS
    }
    attribute {
      name: "group"
      i: 1
      type: INT
    }
    attribute {
      name: "kernel_shape"
      ints: 3
      ints: 3
      type: INTS
    }
    attribute {
      name: "pads"
      ints: 1
      ints: 1
      ints: 1
      ints: 1
      type: INTS
    }
    attribute {
      name: "strides"
      ints: 1
      ints: 1
      type: INTS
    }
  }
  node {
    input: "Convolution2DFunction_102"
    output: "LeakyReLU_79"
    name: "LeakyReLU_79"
    op_type: "LeakyRelu"
    attribute {
      name: "alpha"
      f: 0.20000000298023224
      type: FLOAT
    }
  }
  node {
    input: "Add_24"
    input: "LeakyReLU_77"
    input: "LeakyReLU_78"
    input: "LeakyReLU_79"
    output: "Concat_79"
    name: "Concat_79"
    op_type: "Concat"
    attribute {
      name: "axis"
      i: 1
      type: INT
    }
  }
  node {
    input: "Concat_79"
    input: "param_residual_network_6_residual_dense_block2_conv_layer4_W"
    input: "param_residual_network_6_residual_dense_block2_conv_layer4_b"
    output: "Convolution2DFunction_103"
    name: "Convolution2DFunction_103"
    op_type: "Conv"
    attribute {
      name: "dilations"
      ints: 1
      ints: 1
      type: INTS
    }
    attribute {
      name: "group"
      i: 1
      type: INT
    }
    attribute {
      name: "kernel_shape"
      ints: 3
      ints: 3
      type: INTS
    }
    attribute {
      name: "pads"
      ints: 1
      ints: 1
      ints: 1
      ints: 1
      type: INTS
    }
    attribute {
      name: "strides"
      ints: 1
      ints: 1
      type: INTS
    }
  }
  node {
    input: "Convolution2DFunction_103"
    output: "LeakyReLU_80"
    name: "LeakyReLU_80"
    op_type: "LeakyRelu"
    attribute {
      name: "alpha"
      f: 0.20000000298023224
      type: FLOAT
    }
  }
  node {
    input: "Add_24"
    input: "LeakyReLU_77"
    input: "LeakyReLU_78"
    input: "LeakyReLU_79"
    input: "LeakyReLU_80"
    output: "Concat_80"
    name: "Concat_80"
    op_type: "Concat"
    attribute {
      name: "axis"
      i: 1
      type: INT
    }
  }
  node {
    input: "Concat_80"
    input: "param_residual_network_6_residual_dense_block2_conv_layer5_W"
    input: "param_residual_network_6_residual_dense_block2_conv_layer5_b"
    output: "Convolution2DFunction_104"
    name: "Convolution2DFunction_104"
    op_type: "Conv"
    attribute {
      name: "dilations"
      ints: 1
      ints: 1
      type: INTS
    }
    attribute {
      name: "group"
      i: 1
      type: INT
    }
    attribute {
      name: "kernel_shape"
      ints: 3
      ints: 3
      type: INTS
    }
    attribute {
      name: "pads"
      ints: 1
      ints: 1
      ints: 1
      ints: 1
      type: INTS
    }
    attribute {
      name: "strides"
      ints: 1
      ints: 1
      type: INTS
    }
  }
  node {
    input: "Convolution2DFunction_104"
    input: "v1138"
    output: "MulConstant_25"
    name: "MulConstant_25"
    op_type: "Mul"
  }
  node {
    input: "MulConstant_25"
    input: "Add_24"
    output: "Add_25"
    name: "Add_25"
    op_type: "Add"
  }
  node {
    input: "Add_25"
    input: "param_residual_network_6_residual_dense_block3_conv_layer1_W"
    input: "param_residual_network_6_residual_dense_block3_conv_layer1_b"
    output: "Convolution2DFunction_105"
    name: "Convolution2DFunction_105"
    op_type: "Conv"
    attribute {
      name: "dilations"
      ints: 1
      ints: 1
      type: INTS
    }
    attribute {
      name: "group"
      i: 1
      type: INT
    }
    attribute {
      name: "kernel_shape"
      ints: 3
      ints: 3
      type: INTS
    }
    attribute {
      name: "pads"
      ints: 1
      ints: 1
      ints: 1
      ints: 1
      type: INTS
    }
    attribute {
      name: "strides"
      ints: 1
      ints: 1
      type: INTS
    }
  }
  node {
    input: "Convolution2DFunction_105"
    output: "LeakyReLU_81"
    name: "LeakyReLU_81"
    op_type: "LeakyRelu"
    attribute {
      name: "alpha"
      f: 0.20000000298023224
      type: FLOAT
    }
  }
  node {
    input: "Add_25"
    input: "LeakyReLU_81"
    output: "Concat_81"
    name: "Concat_81"
    op_type: "Concat"
    attribute {
      name: "axis"
      i: 1
      type: INT
    }
  }
  node {
    input: "Concat_81"
    input: "param_residual_network_6_residual_dense_block3_conv_layer2_W"
    input: "param_residual_network_6_residual_dense_block3_conv_layer2_b"
    output: "Convolution2DFunction_106"
    name: "Convolution2DFunction_106"
    op_type: "Conv"
    attribute {
      name: "dilations"
      ints: 1
      ints: 1
      type: INTS
    }
    attribute {
      name: "group"
      i: 1
      type: INT
    }
    attribute {
      name: "kernel_shape"
      ints: 3
      ints: 3
      type: INTS
    }
    attribute {
      name: "pads"
      ints: 1
      ints: 1
      ints: 1
      ints: 1
      type: INTS
    }
    attribute {
      name: "strides"
      ints: 1
      ints: 1
      type: INTS
    }
  }
  node {
    input: "Convolution2DFunction_106"
    output: "LeakyReLU_82"
    name: "LeakyReLU_82"
    op_type: "LeakyRelu"
    attribute {
      name: "alpha"
      f: 0.20000000298023224
      type: FLOAT
    }
  }
  node {
    input: "Add_25"
    input: "LeakyReLU_81"
    input: "LeakyReLU_82"
    output: "Concat_82"
    name: "Concat_82"
    op_type: "Concat"
    attribute {
      name: "axis"
      i: 1
      type: INT
    }
  }
  node {
    input: "Concat_82"
    input: "param_residual_network_6_residual_dense_block3_conv_layer3_W"
    input: "param_residual_network_6_residual_dense_block3_conv_layer3_b"
    output: "Convolution2DFunction_107"
    name: "Convolution2DFunction_107"
    op_type: "Conv"
    attribute {
      name: "dilations"
      ints: 1
      ints: 1
      type: INTS
    }
    attribute {
      name: "group"
      i: 1
      type: INT
    }
    attribute {
      name: "kernel_shape"
      ints: 3
      ints: 3
      type: INTS
    }
    attribute {
      name: "pads"
      ints: 1
      ints: 1
      ints: 1
      ints: 1
      type: INTS
    }
    attribute {
      name: "strides"
      ints: 1
      ints: 1
      type: INTS
    }
  }
  node {
    input: "Convolution2DFunction_107"
    output: "LeakyReLU_83"
    name: "LeakyReLU_83"
    op_type: "LeakyRelu"
    attribute {
      name: "alpha"
      f: 0.20000000298023224
      type: FLOAT
    }
  }
  node {
    input: "Add_25"
    input: "LeakyReLU_81"
    input: "LeakyReLU_82"
    input: "LeakyReLU_83"
    output: "Concat_83"
    name: "Concat_83"
    op_type: "Concat"
    attribute {
      name: "axis"
      i: 1
      type: INT
    }
  }
  node {
    input: "Concat_83"
    input: "param_residual_network_6_residual_dense_block3_conv_layer4_W"
    input: "param_residual_network_6_residual_dense_block3_conv_layer4_b"
    output: "Convolution2DFunction_108"
    name: "Convolution2DFunction_108"
    op_type: "Conv"
    attribute {
      name: "dilations"
      ints: 1
      ints: 1
      type: INTS
    }
    attribute {
      name: "group"
      i: 1
      type: INT
    }
    attribute {
      name: "kernel_shape"
      ints: 3
      ints: 3
      type: INTS
    }
    attribute {
      name: "pads"
      ints: 1
      ints: 1
      ints: 1
      ints: 1
      type: INTS
    }
    attribute {
      name: "strides"
      ints: 1
      ints: 1
      type: INTS
    }
  }
  node {
    input: "Convolution2DFunction_108"
    output: "LeakyReLU_84"
    name: "LeakyReLU_84"
    op_type: "LeakyRelu"
    attribute {
      name: "alpha"
      f: 0.20000000298023224
      type: FLOAT
    }
  }
  node {
    input: "Add_25"
    input: "LeakyReLU_81"
    input: "LeakyReLU_82"
    input: "LeakyReLU_83"
    input: "LeakyReLU_84"
    output: "Concat_84"
    name: "Concat_84"
    op_type: "Concat"
    attribute {
      name: "axis"
      i: 1
      type: INT
    }
  }
  node {
    input: "Concat_84"
    input: "param_residual_network_6_residual_dense_block3_conv_layer5_W"
    input: "param_residual_network_6_residual_dense_block3_conv_layer5_b"
    output: "Convolution2DFunction_109"
    name: "Convolution2DFunction_109"
    op_type: "Conv"
    attribute {
      name: "dilations"
      ints: 1
      ints: 1
      type: INTS
    }
    attribute {
      name: "group"
      i: 1
      type: INT
    }
    attribute {
      name: "kernel_shape"
      ints: 3
      ints: 3
      type: INTS
    }
    attribute {
      name: "pads"
      ints: 1
      ints: 1
      ints: 1
      ints: 1
      type: INTS
    }
    attribute {
      name: "strides"
      ints: 1
      ints: 1
      type: INTS
    }
  }
  node {
    input: "Convolution2DFunction_109"
    input: "v1155"
    output: "MulConstant_26"
    name: "MulConstant_26"
    op_type: "Mul"
  }
  node {
    input: "MulConstant_26"
    input: "Add_25"
    output: "Add_26"
    name: "Add_26"
    op_type: "Add"
  }
  node {
    input: "Add_26"
    input: "v1159"
    output: "MulConstant_27"
    name: "MulConstant_27"
    op_type: "Mul"
  }
  node {
    input: "MulConstant_27"
    input: "Add_23"
    output: "Add_27"
    name: "Add_27"
    op_type: "Add"
  }
  node {
    input: "Add_27"
    input: "param_residual_network_5_residual_dense_block1_conv_layer1_W"
    input: "param_residual_network_5_residual_dense_block1_conv_layer1_b"
    output: "Convolution2DFunction_110"
    name: "Convolution2DFunction_110"
    op_type: "Conv"
    attribute {
      name: "dilations"
      ints: 1
      ints: 1
      type: INTS
    }
    attribute {
      name: "group"
      i: 1
      type: INT
    }
    attribute {
      name: "kernel_shape"
      ints: 3
      ints: 3
      type: INTS
    }
    attribute {
      name: "pads"
      ints: 1
      ints: 1
      ints: 1
      ints: 1
      type: INTS
    }
    attribute {
      name: "strides"
      ints: 1
      ints: 1
      type: INTS
    }
  }
  node {
    input: "Convolution2DFunction_110"
    output: "LeakyReLU_85"
    name: "LeakyReLU_85"
    op_type: "LeakyRelu"
    attribute {
      name: "alpha"
      f: 0.20000000298023224
      type: FLOAT
    }
  }
  node {
    input: "Add_27"
    input: "LeakyReLU_85"
    output: "Concat_85"
    name: "Concat_85"
    op_type: "Concat"
    attribute {
      name: "axis"
      i: 1
      type: INT
    }
  }
  node {
    input: "Concat_85"
    input: "param_residual_network_5_residual_dense_block1_conv_layer2_W"
    input: "param_residual_network_5_residual_dense_block1_conv_layer2_b"
    output: "Convolution2DFunction_111"
    name: "Convolution2DFunction_111"
    op_type: "Conv"
    attribute {
      name: "dilations"
      ints: 1
      ints: 1
      type: INTS
    }
    attribute {
      name: "group"
      i: 1
      type: INT
    }
    attribute {
      name: "kernel_shape"
      ints: 3
      ints: 3
      type: INTS
    }
    attribute {
      name: "pads"
      ints: 1
      ints: 1
      ints: 1
      ints: 1
      type: INTS
    }
    attribute {
      name: "strides"
      ints: 1
      ints: 1
      type: INTS
    }
  }
  node {
    input: "Convolution2DFunction_111"
    output: "LeakyReLU_86"
    name: "LeakyReLU_86"
    op_type: "LeakyRelu"
    attribute {
      name: "alpha"
      f: 0.20000000298023224
      type: FLOAT
    }
  }
  node {
    input: "Add_27"
    input: "LeakyReLU_85"
    input: "LeakyReLU_86"
    output: "Concat_86"
    name: "Concat_86"
    op_type: "Concat"
    attribute {
      name: "axis"
      i: 1
      type: INT
    }
  }
  node {
    input: "Concat_86"
    input: "param_residual_network_5_residual_dense_block1_conv_layer3_W"
    input: "param_residual_network_5_residual_dense_block1_conv_layer3_b"
    output: "Convolution2DFunction_112"
    name: "Convolution2DFunction_112"
    op_type: "Conv"
    attribute {
      name: "dilations"
      ints: 1
      ints: 1
      type: INTS
    }
    attribute {
      name: "group"
      i: 1
      type: INT
    }
    attribute {
      name: "kernel_shape"
      ints: 3
      ints: 3
      type: INTS
    }
    attribute {
      name: "pads"
      ints: 1
      ints: 1
      ints: 1
      ints: 1
      type: INTS
    }
    attribute {
      name: "strides"
      ints: 1
      ints: 1
      type: INTS
    }
  }
  node {
    input: "Convolution2DFunction_112"
    output: "LeakyReLU_87"
    name: "LeakyReLU_87"
    op_type: "LeakyRelu"
    attribute {
      name: "alpha"
      f: 0.20000000298023224
      type: FLOAT
    }
  }
  node {
    input: "Add_27"
    input: "LeakyReLU_85"
    input: "LeakyReLU_86"
    input: "LeakyReLU_87"
    output: "Concat_87"
    name: "Concat_87"
    op_type: "Concat"
    attribute {
      name: "axis"
      i: 1
      type: INT
    }
  }
  node {
    input: "Concat_87"
    input: "param_residual_network_5_residual_dense_block1_conv_layer4_W"
    input: "param_residual_network_5_residual_dense_block1_conv_layer4_b"
    output: "Convolution2DFunction_113"
    name: "Convolution2DFunction_113"
    op_type: "Conv"
    attribute {
      name: "dilations"
      ints: 1
      ints: 1
      type: INTS
    }
    attribute {
      name: "group"
      i: 1
      type: INT
    }
    attribute {
      name: "kernel_shape"
      ints: 3
      ints: 3
      type: INTS
    }
    attribute {
      name: "pads"
      ints: 1
      ints: 1
      ints: 1
      ints: 1
      type: INTS
    }
    attribute {
      name: "strides"
      ints: 1
      ints: 1
      type: INTS
    }
  }
  node {
    input: "Convolution2DFunction_113"
    output: "LeakyReLU_88"
    name: "LeakyReLU_88"
    op_type: "LeakyRelu"
    attribute {
      name: "alpha"
      f: 0.20000000298023224
      type: FLOAT
    }
  }
  node {
    input: "Add_27"
    input: "LeakyReLU_85"
    input: "LeakyReLU_86"
    input: "LeakyReLU_87"
    input: "LeakyReLU_88"
    output: "Concat_88"
    name: "Concat_88"
    op_type: "Concat"
    attribute {
      name: "axis"
      i: 1
      type: INT
    }
  }
  node {
    input: "Concat_88"
    input: "param_residual_network_5_residual_dense_block1_conv_layer5_W"
    input: "param_residual_network_5_residual_dense_block1_conv_layer5_b"
    output: "Convolution2DFunction_114"
    name: "Convolution2DFunction_114"
    op_type: "Conv"
    attribute {
      name: "dilations"
      ints: 1
      ints: 1
      type: INTS
    }
    attribute {
      name: "group"
      i: 1
      type: INT
    }
    attribute {
      name: "kernel_shape"
      ints: 3
      ints: 3
      type: INTS
    }
    attribute {
      name: "pads"
      ints: 1
      ints: 1
      ints: 1
      ints: 1
      type: INTS
    }
    attribute {
      name: "strides"
      ints: 1
      ints: 1
      type: INTS
    }
  }
  node {
    input: "Convolution2DFunction_114"
    input: "v1176"
    output: "MulConstant_28"
    name: "MulConstant_28"
    op_type: "Mul"
  }
  node {
    input: "MulConstant_28"
    input: "Add_27"
    output: "Add_28"
    name: "Add_28"
    op_type: "Add"
  }
  node {
    input: "Add_28"
    input: "param_residual_network_5_residual_dense_block2_conv_layer1_W"
    input: "param_residual_network_5_residual_dense_block2_conv_layer1_b"
    output: "Convolution2DFunction_115"
    name: "Convolution2DFunction_115"
    op_type: "Conv"
    attribute {
      name: "dilations"
      ints: 1
      ints: 1
      type: INTS
    }
    attribute {
      name: "group"
      i: 1
      type: INT
    }
    attribute {
      name: "kernel_shape"
      ints: 3
      ints: 3
      type: INTS
    }
    attribute {
      name: "pads"
      ints: 1
      ints: 1
      ints: 1
      ints: 1
      type: INTS
    }
    attribute {
      name: "strides"
      ints: 1
      ints: 1
      type: INTS
    }
  }
  node {
    input: "Convolution2DFunction_115"
    output: "LeakyReLU_89"
    name: "LeakyReLU_89"
    op_type: "LeakyRelu"
    attribute {
      name: "alpha"
      f: 0.20000000298023224
      type: FLOAT
    }
  }
  node {
    input: "Add_28"
    input: "LeakyReLU_89"
    output: "Concat_89"
    name: "Concat_89"
    op_type: "Concat"
    attribute {
      name: "axis"
      i: 1
      type: INT
    }
  }
  node {
    input: "Concat_89"
    input: "param_residual_network_5_residual_dense_block2_conv_layer2_W"
    input: "param_residual_network_5_residual_dense_block2_conv_layer2_b"
    output: "Convolution2DFunction_116"
    name: "Convolution2DFunction_116"
    op_type: "Conv"
    attribute {
      name: "dilations"
      ints: 1
      ints: 1
      type: INTS
    }
    attribute {
      name: "group"
      i: 1
      type: INT
    }
    attribute {
      name: "kernel_shape"
      ints: 3
      ints: 3
      type: INTS
    }
    attribute {
      name: "pads"
      ints: 1
      ints: 1
      ints: 1
      ints: 1
      type: INTS
    }
    attribute {
      name: "strides"
      ints: 1
      ints: 1
      type: INTS
    }
  }
  node {
    input: "Convolution2DFunction_116"
    output: "LeakyReLU_90"
    name: "LeakyReLU_90"
    op_type: "LeakyRelu"
    attribute {
      name: "alpha"
      f: 0.20000000298023224
      type: FLOAT
    }
  }
  node {
    input: "Add_28"
    input: "LeakyReLU_89"
    input: "LeakyReLU_90"
    output: "Concat_90"
    name: "Concat_90"
    op_type: "Concat"
    attribute {
      name: "axis"
      i: 1
      type: INT
    }
  }
  node {
    input: "Concat_90"
    input: "param_residual_network_5_residual_dense_block2_conv_layer3_W"
    input: "param_residual_network_5_residual_dense_block2_conv_layer3_b"
    output: "Convolution2DFunction_117"
    name: "Convolution2DFunction_117"
    op_type: "Conv"
    attribute {
      name: "dilations"
      ints: 1
      ints: 1
      type: INTS
    }
    attribute {
      name: "group"
      i: 1
      type: INT
    }
    attribute {
      name: "kernel_shape"
      ints: 3
      ints: 3
      type: INTS
    }
    attribute {
      name: "pads"
      ints: 1
      ints: 1
      ints: 1
      ints: 1
      type: INTS
    }
    attribute {
      name: "strides"
      ints: 1
      ints: 1
      type: INTS
    }
  }
  node {
    input: "Convolution2DFunction_117"
    output: "LeakyReLU_91"
    name: "LeakyReLU_91"
    op_type: "LeakyRelu"
    attribute {
      name: "alpha"
      f: 0.20000000298023224
      type: FLOAT
    }
  }
  node {
    input: "Add_28"
    input: "LeakyReLU_89"
    input: "LeakyReLU_90"
    input: "LeakyReLU_91"
    output: "Concat_91"
    name: "Concat_91"
    op_type: "Concat"
    attribute {
      name: "axis"
      i: 1
      type: INT
    }
  }
  node {
    input: "Concat_91"
    input: "param_residual_network_5_residual_dense_block2_conv_layer4_W"
    input: "param_residual_network_5_residual_dense_block2_conv_layer4_b"
    output: "Convolution2DFunction_118"
    name: "Convolution2DFunction_118"
    op_type: "Conv"
    attribute {
      name: "dilations"
      ints: 1
      ints: 1
      type: INTS
    }
    attribute {
      name: "group"
      i: 1
      type: INT
    }
    attribute {
      name: "kernel_shape"
      ints: 3
      ints: 3
      type: INTS
    }
    attribute {
      name: "pads"
      ints: 1
      ints: 1
      ints: 1
      ints: 1
      type: INTS
    }
    attribute {
      name: "strides"
      ints: 1
      ints: 1
      type: INTS
    }
  }
  node {
    input: "Convolution2DFunction_118"
    output: "LeakyReLU_92"
    name: "LeakyReLU_92"
    op_type: "LeakyRelu"
    attribute {
      name: "alpha"
      f: 0.20000000298023224
      type: FLOAT
    }
  }
  node {
    input: "Add_28"
    input: "LeakyReLU_89"
    input: "LeakyReLU_90"
    input: "LeakyReLU_91"
    input: "LeakyReLU_92"
    output: "Concat_92"
    name: "Concat_92"
    op_type: "Concat"
    attribute {
      name: "axis"
      i: 1
      type: INT
    }
  }
  node {
    input: "Concat_92"
    input: "param_residual_network_5_residual_dense_block2_conv_layer5_W"
    input: "param_residual_network_5_residual_dense_block2_conv_layer5_b"
    output: "Convolution2DFunction_119"
    name: "Convolution2DFunction_119"
    op_type: "Conv"
    attribute {
      name: "dilations"
      ints: 1
      ints: 1
      type: INTS
    }
    attribute {
      name: "group"
      i: 1
      type: INT
    }
    attribute {
      name: "kernel_shape"
      ints: 3
      ints: 3
      type: INTS
    }
    attribute {
      name: "pads"
      ints: 1
      ints: 1
      ints: 1
      ints: 1
      type: INTS
    }
    attribute {
      name: "strides"
      ints: 1
      ints: 1
      type: INTS
    }
  }
  node {
    input: "Convolution2DFunction_119"
    input: "v1193"
    output: "MulConstant_29"
    name: "MulConstant_29"
    op_type: "Mul"
  }
  node {
    input: "MulConstant_29"
    input: "Add_28"
    output: "Add_29"
    name: "Add_29"
    op_type: "Add"
  }
  node {
    input: "Add_29"
    input: "param_residual_network_5_residual_dense_block3_conv_layer1_W"
    input: "param_residual_network_5_residual_dense_block3_conv_layer1_b"
    output: "Convolution2DFunction_120"
    name: "Convolution2DFunction_120"
    op_type: "Conv"
    attribute {
      name: "dilations"
      ints: 1
      ints: 1
      type: INTS
    }
    attribute {
      name: "group"
      i: 1
      type: INT
    }
    attribute {
      name: "kernel_shape"
      ints: 3
      ints: 3
      type: INTS
    }
    attribute {
      name: "pads"
      ints: 1
      ints: 1
      ints: 1
      ints: 1
      type: INTS
    }
    attribute {
      name: "strides"
      ints: 1
      ints: 1
      type: INTS
    }
  }
  node {
    input: "Convolution2DFunction_120"
    output: "LeakyReLU_93"
    name: "LeakyReLU_93"
    op_type: "LeakyRelu"
    attribute {
      name: "alpha"
      f: 0.20000000298023224
      type: FLOAT
    }
  }
  node {
    input: "Add_29"
    input: "LeakyReLU_93"
    output: "Concat_93"
    name: "Concat_93"
    op_type: "Concat"
    attribute {
      name: "axis"
      i: 1
      type: INT
    }
  }
  node {
    input: "Concat_93"
    input: "param_residual_network_5_residual_dense_block3_conv_layer2_W"
    input: "param_residual_network_5_residual_dense_block3_conv_layer2_b"
    output: "Convolution2DFunction_121"
    name: "Convolution2DFunction_121"
    op_type: "Conv"
    attribute {
      name: "dilations"
      ints: 1
      ints: 1
      type: INTS
    }
    attribute {
      name: "group"
      i: 1
      type: INT
    }
    attribute {
      name: "kernel_shape"
      ints: 3
      ints: 3
      type: INTS
    }
    attribute {
      name: "pads"
      ints: 1
      ints: 1
      ints: 1
      ints: 1
      type: INTS
    }
    attribute {
      name: "strides"
      ints: 1
      ints: 1
      type: INTS
    }
  }
  node {
    input: "Convolution2DFunction_121"
    output: "LeakyReLU_94"
    name: "LeakyReLU_94"
    op_type: "LeakyRelu"
    attribute {
      name: "alpha"
      f: 0.20000000298023224
      type: FLOAT
    }
  }
  node {
    input: "Add_29"
    input: "LeakyReLU_93"
    input: "LeakyReLU_94"
    output: "Concat_94"
    name: "Concat_94"
    op_type: "Concat"
    attribute {
      name: "axis"
      i: 1
      type: INT
    }
  }
  node {
    input: "Concat_94"
    input: "param_residual_network_5_residual_dense_block3_conv_layer3_W"
    input: "param_residual_network_5_residual_dense_block3_conv_layer3_b"
    output: "Convolution2DFunction_122"
    name: "Convolution2DFunction_122"
    op_type: "Conv"
    attribute {
      name: "dilations"
      ints: 1
      ints: 1
      type: INTS
    }
    attribute {
      name: "group"
      i: 1
      type: INT
    }
    attribute {
      name: "kernel_shape"
      ints: 3
      ints: 3
      type: INTS
    }
    attribute {
      name: "pads"
      ints: 1
      ints: 1
      ints: 1
      ints: 1
      type: INTS
    }
    attribute {
      name: "strides"
      ints: 1
      ints: 1
      type: INTS
    }
  }
  node {
    input: "Convolution2DFunction_122"
    output: "LeakyReLU_95"
    name: "LeakyReLU_95"
    op_type: "LeakyRelu"
    attribute {
      name: "alpha"
      f: 0.20000000298023224
      type: FLOAT
    }
  }
  node {
    input: "Add_29"
    input: "LeakyReLU_93"
    input: "LeakyReLU_94"
    input: "LeakyReLU_95"
    output: "Concat_95"
    name: "Concat_95"
    op_type: "Concat"
    attribute {
      name: "axis"
      i: 1
      type: INT
    }
  }
  node {
    input: "Concat_95"
    input: "param_residual_network_5_residual_dense_block3_conv_layer4_W"
    input: "param_residual_network_5_residual_dense_block3_conv_layer4_b"
    output: "Convolution2DFunction_123"
    name: "Convolution2DFunction_123"
    op_type: "Conv"
    attribute {
      name: "dilations"
      ints: 1
      ints: 1
      type: INTS
    }
    attribute {
      name: "group"
      i: 1
      type: INT
    }
    attribute {
      name: "kernel_shape"
      ints: 3
      ints: 3
      type: INTS
    }
    attribute {
      name: "pads"
      ints: 1
      ints: 1
      ints: 1
      ints: 1
      type: INTS
    }
    attribute {
      name: "strides"
      ints: 1
      ints: 1
      type: INTS
    }
  }
  node {
    input: "Convolution2DFunction_123"
    output: "LeakyReLU_96"
    name: "LeakyReLU_96"
    op_type: "LeakyRelu"
    attribute {
      name: "alpha"
      f: 0.20000000298023224
      type: FLOAT
    }
  }
  node {
    input: "Add_29"
    input: "LeakyReLU_93"
    input: "LeakyReLU_94"
    input: "LeakyReLU_95"
    input: "LeakyReLU_96"
    output: "Concat_96"
    name: "Concat_96"
    op_type: "Concat"
    attribute {
      name: "axis"
      i: 1
      type: INT
    }
  }
  node {
    input: "Concat_96"
    input: "param_residual_network_5_residual_dense_block3_conv_layer5_W"
    input: "param_residual_network_5_residual_dense_block3_conv_layer5_b"
    output: "Convolution2DFunction_124"
    name: "Convolution2DFunction_124"
    op_type: "Conv"
    attribute {
      name: "dilations"
      ints: 1
      ints: 1
      type: INTS
    }
    attribute {
      name: "group"
      i: 1
      type: INT
    }
    attribute {
      name: "kernel_shape"
      ints: 3
      ints: 3
      type: INTS
    }
    attribute {
      name: "pads"
      ints: 1
      ints: 1
      ints: 1
      ints: 1
      type: INTS
    }
    attribute {
      name: "strides"
      ints: 1
      ints: 1
      type: INTS
    }
  }
  node {
    input: "Convolution2DFunction_124"
    input: "v1210"
    output: "MulConstant_30"
    name: "MulConstant_30"
    op_type: "Mul"
  }
  node {
    input: "MulConstant_30"
    input: "Add_29"
    output: "Add_30"
    name: "Add_30"
    op_type: "Add"
  }
  node {
    input: "Add_30"
    input: "v1214"
    output: "MulConstant_31"
    name: "MulConstant_31"
    op_type: "Mul"
  }
  node {
    input: "MulConstant_31"
    input: "Add_27"
    output: "Add_31"
    name: "Add_31"
    op_type: "Add"
  }
  node {
    input: "Add_31"
    input: "param_residual_network_4_residual_dense_block1_conv_layer1_W"
    input: "param_residual_network_4_residual_dense_block1_conv_layer1_b"
    output: "Convolution2DFunction_125"
    name: "Convolution2DFunction_125"
    op_type: "Conv"
    attribute {
      name: "dilations"
      ints: 1
      ints: 1
      type: INTS
    }
    attribute {
      name: "group"
      i: 1
      type: INT
    }
    attribute {
      name: "kernel_shape"
      ints: 3
      ints: 3
      type: INTS
    }
    attribute {
      name: "pads"
      ints: 1
      ints: 1
      ints: 1
      ints: 1
      type: INTS
    }
    attribute {
      name: "strides"
      ints: 1
      ints: 1
      type: INTS
    }
  }
  node {
    input: "Convolution2DFunction_125"
    output: "LeakyReLU_97"
    name: "LeakyReLU_97"
    op_type: "LeakyRelu"
    attribute {
      name: "alpha"
      f: 0.20000000298023224
      type: FLOAT
    }
  }
  node {
    input: "Add_31"
    input: "LeakyReLU_97"
    output: "Concat_97"
    name: "Concat_97"
    op_type: "Concat"
    attribute {
      name: "axis"
      i: 1
      type: INT
    }
  }
  node {
    input: "Concat_97"
    input: "param_residual_network_4_residual_dense_block1_conv_layer2_W"
    input: "param_residual_network_4_residual_dense_block1_conv_layer2_b"
    output: "Convolution2DFunction_126"
    name: "Convolution2DFunction_126"
    op_type: "Conv"
    attribute {
      name: "dilations"
      ints: 1
      ints: 1
      type: INTS
    }
    attribute {
      name: "group"
      i: 1
      type: INT
    }
    attribute {
      name: "kernel_shape"
      ints: 3
      ints: 3
      type: INTS
    }
    attribute {
      name: "pads"
      ints: 1
      ints: 1
      ints: 1
      ints: 1
      type: INTS
    }
    attribute {
      name: "strides"
      ints: 1
      ints: 1
      type: INTS
    }
  }
  node {
    input: "Convolution2DFunction_126"
    output: "LeakyReLU_98"
    name: "LeakyReLU_98"
    op_type: "LeakyRelu"
    attribute {
      name: "alpha"
      f: 0.20000000298023224
      type: FLOAT
    }
  }
  node {
    input: "Add_31"
    input: "LeakyReLU_97"
    input: "LeakyReLU_98"
    output: "Concat_98"
    name: "Concat_98"
    op_type: "Concat"
    attribute {
      name: "axis"
      i: 1
      type: INT
    }
  }
  node {
    input: "Concat_98"
    input: "param_residual_network_4_residual_dense_block1_conv_layer3_W"
    input: "param_residual_network_4_residual_dense_block1_conv_layer3_b"
    output: "Convolution2DFunction_127"
    name: "Convolution2DFunction_127"
    op_type: "Conv"
    attribute {
      name: "dilations"
      ints: 1
      ints: 1
      type: INTS
    }
    attribute {
      name: "group"
      i: 1
      type: INT
    }
    attribute {
      name: "kernel_shape"
      ints: 3
      ints: 3
      type: INTS
    }
    attribute {
      name: "pads"
      ints: 1
      ints: 1
      ints: 1
      ints: 1
      type: INTS
    }
    attribute {
      name: "strides"
      ints: 1
      ints: 1
      type: INTS
    }
  }
  node {
    input: "Convolution2DFunction_127"
    output: "LeakyReLU_99"
    name: "LeakyReLU_99"
    op_type: "LeakyRelu"
    attribute {
      name: "alpha"
      f: 0.20000000298023224
      type: FLOAT
    }
  }
  node {
    input: "Add_31"
    input: "LeakyReLU_97"
    input: "LeakyReLU_98"
    input: "LeakyReLU_99"
    output: "Concat_99"
    name: "Concat_99"
    op_type: "Concat"
    attribute {
      name: "axis"
      i: 1
      type: INT
    }
  }
  node {
    input: "Concat_99"
    input: "param_residual_network_4_residual_dense_block1_conv_layer4_W"
    input: "param_residual_network_4_residual_dense_block1_conv_layer4_b"
    output: "Convolution2DFunction_128"
    name: "Convolution2DFunction_128"
    op_type: "Conv"
    attribute {
      name: "dilations"
      ints: 1
      ints: 1
      type: INTS
    }
    attribute {
      name: "group"
      i: 1
      type: INT
    }
    attribute {
      name: "kernel_shape"
      ints: 3
      ints: 3
      type: INTS
    }
    attribute {
      name: "pads"
      ints: 1
      ints: 1
      ints: 1
      ints: 1
      type: INTS
    }
    attribute {
      name: "strides"
      ints: 1
      ints: 1
      type: INTS
    }
  }
  node {
    input: "Convolution2DFunction_128"
    output: "LeakyReLU_100"
    name: "LeakyReLU_100"
    op_type: "LeakyRelu"
    attribute {
      name: "alpha"
      f: 0.20000000298023224
      type: FLOAT
    }
  }
  node {
    input: "Add_31"
    input: "LeakyReLU_97"
    input: "LeakyReLU_98"
    input: "LeakyReLU_99"
    input: "LeakyReLU_100"
    output: "Concat_100"
    name: "Concat_100"
    op_type: "Concat"
    attribute {
      name: "axis"
      i: 1
      type: INT
    }
  }
  node {
    input: "Concat_100"
    input: "param_residual_network_4_residual_dense_block1_conv_layer5_W"
    input: "param_residual_network_4_residual_dense_block1_conv_layer5_b"
    output: "Convolution2DFunction_129"
    name: "Convolution2DFunction_129"
    op_type: "Conv"
    attribute {
      name: "dilations"
      ints: 1
      ints: 1
      type: INTS
    }
    attribute {
      name: "group"
      i: 1
      type: INT
    }
    attribute {
      name: "kernel_shape"
      ints: 3
      ints: 3
      type: INTS
    }
    attribute {
      name: "pads"
      ints: 1
      ints: 1
      ints: 1
      ints: 1
      type: INTS
    }
    attribute {
      name: "strides"
      ints: 1
      ints: 1
      type: INTS
    }
  }
  node {
    input: "Convolution2DFunction_129"
    input: "v1231"
    output: "MulConstant_32"
    name: "MulConstant_32"
    op_type: "Mul"
  }
  node {
    input: "MulConstant_32"
    input: "Add_31"
    output: "Add_32"
    name: "Add_32"
    op_type: "Add"
  }
  node {
    input: "Add_32"
    input: "param_residual_network_4_residual_dense_block2_conv_layer1_W"
    input: "param_residual_network_4_residual_dense_block2_conv_layer1_b"
    output: "Convolution2DFunction_130"
    name: "Convolution2DFunction_130"
    op_type: "Conv"
    attribute {
…
      tensor_type {
        elem_type: 1
        shape {
          dim {
            dim_value: 32
          }
          dim {
            dim_value: 160
          }
          dim {
            dim_value: 3
          }
          dim {
            dim_value: 3
          }
        }
      }
    }
  }
  input {
    name: "param_residual_network_7_residual_dense_block2_conv_layer4_b"
    type {
      tensor_type {
        elem_type: 1
        shape {
          dim {
            dim_value: 32
          }
        }
      }
    }
  }
  input {
    name: "param_residual_network_7_residual_dense_block2_conv_layer5_W"
    type {
      tensor_type {
        elem_type: 1
        shape {
          dim {
            dim_value: 64
          }
          dim {
            dim_value: 192
          }
          dim {
            dim_value: 3
          }
          dim {
            dim_value: 3
          }
        }
      }
    }
  }
  input {
    name: "param_residual_network_7_residual_dense_block2_conv_layer5_b"
    type {
      tensor_type {
        elem_type: 1
        shape {
          dim {
            dim_value: 64
          }
        }
      }
    }
  }
  input {
    name: "param_residual_network_7_residual_dense_block3_conv_layer1_W"
    type {
      tensor_type {
        elem_type: 1
        shape {
          dim {
            dim_value: 32
          }
          dim {
            dim_value: 64
          }
          dim {
            dim_value: 3
          }
          dim {
            dim_value: 3
          }
        }
      }
    }
  }
  input {
    name: "param_residual_network_7_residual_dense_block3_conv_layer1_b"
    type {
      tensor_type {
        elem_type: 1
        shape {
          dim {
            dim_value: 32
          }
        }
      }
    }
  }
  input {
    name: "param_residual_network_7_residual_dense_block3_conv_layer2_W"
    type {
      tensor_type {
        elem_type: 1
        shape {
          dim {
            dim_value: 32
          }
          dim {
            dim_value: 96
          }
          dim {
            dim_value: 3
          }
          dim {
            dim_value: 3
          }
        }
      }
    }
  }
  input {
    name: "param_residual_network_7_residual_dense_block3_conv_layer2_b"
    type {
      tensor_type {
        elem_type: 1
        shape {
          dim {
            dim_value: 32
          }
        }
      }
    }
  }
  input {
    name: "param_residual_network_7_residual_dense_block3_conv_layer3_W"
    type {
      tensor_type {
        elem_type: 1
        shape {
          dim {
            dim_value: 32
          }
          dim {
            dim_value: 128
          }
          dim {
            dim_value: 3
          }
          dim {
            dim_value: 3
          }
        }
      }
    }
  }
  input {
    name: "param_residual_network_7_residual_dense_block3_conv_layer3_b"
    type {
      tensor_type {
        elem_type: 1
        shape {
          dim {
            dim_value: 32
          }
        }
      }
    }
  }
  input {
    name: "param_residual_network_7_residual_dense_block3_conv_layer4_W"
    type {
      tensor_type {
        elem_type: 1
        shape {
          dim {
            dim_value: 32
          }
          dim {
            dim_value: 160
          }
          dim {
            dim_value: 3
          }
          dim {
            dim_value: 3
          }
        }
      }
    }
  }
  input {
    name: "param_residual_network_7_residual_dense_block3_conv_layer4_b"
    type {
      tensor_type {
        elem_type: 1
        shape {
          dim {
            dim_value: 32
          }
        }
      }
    }
  }
  input {
    name: "param_residual_network_7_residual_dense_block3_conv_layer5_W"
    type {
      tensor_type {
        elem_type: 1
        shape {
          dim {
            dim_value: 64
          }
          dim {
            dim_value: 192
          }
          dim {
            dim_value: 3
          }
          dim {
            dim_value: 3
          }
        }
      }
    }
  }
  input {
    name: "param_residual_network_7_residual_dense_block3_conv_layer5_b"
    type {
      tensor_type {
        elem_type: 1
        shape {
          dim {
            dim_value: 64
          }
        }
      }
    }
  }
  input {
    name: "param_residual_network_8_residual_dense_block1_conv_layer1_W"
    type {
      tensor_type {
        elem_type: 1
        shape {
          dim {
            dim_value: 32
          }
          dim {
            dim_value: 64
          }
          dim {
            dim_value: 3
          }
          dim {
            dim_value: 3
          }
        }
      }
    }
  }
  input {
    name: "param_residual_network_8_residual_dense_block1_conv_layer1_b"
    type {
      tensor_type {
        elem_type: 1
        shape {
          dim {
            dim_value: 32
          }
        }
      }
    }
  }
  input {
    name: "param_residual_network_8_residual_dense_block1_conv_layer2_W"
    type {
      tensor_type {
        elem_type: 1
        shape {
          dim {
            dim_value: 32
          }
          dim {
            dim_value: 96
          }
          dim {
            dim_value: 3
          }
          dim {
            dim_value: 3
          }
        }
      }
    }
  }
  input {
    name: "param_residual_network_8_residual_dense_block1_conv_layer2_b"
    type {
      tensor_type {
        elem_type: 1
        shape {
          dim {
            dim_value: 32
          }
        }
      }
    }
  }
  input {
    name: "param_residual_network_8_residual_dense_block1_conv_layer3_W"
    type {
      tensor_type {
        elem_type: 1
        shape {
          dim {
            dim_value: 32
          }
          dim {
            dim_value: 128
          }
          dim {
            dim_value: 3
          }
          dim {
            dim_value: 3
          }
        }
      }
    }
  }
  input {
    name: "param_residual_network_8_residual_dense_block1_conv_layer3_b"
    type {
      tensor_type {
        elem_type: 1
        shape {
          dim {
            dim_value: 32
          }
        }
      }
    }
  }
  input {
    name: "param_residual_network_8_residual_dense_block1_conv_layer4_W"
    type {
      tensor_type {
        elem_type: 1
        shape {
          dim {
            dim_value: 32
          }
          dim {
            dim_value: 160
          }
          dim {
            dim_value: 3
          }
          dim {
            dim_value: 3
          }
        }
      }
    }
  }
  input {
    name: "param_residual_network_8_residual_dense_block1_conv_layer4_b"
    type {
      tensor_type {
        elem_type: 1
        shape {
          dim {
            dim_value: 32
          }
        }
      }
    }
  }
  input {
    name: "param_residual_network_8_residual_dense_block1_conv_layer5_W"
    type {
      tensor_type {
        elem_type: 1
        shape {
          dim {
            dim_value: 64
          }
          dim {
            dim_value: 192
          }
          dim {
            dim_value: 3
          }
          dim {
            dim_value: 3
          }
        }
      }
    }
  }
  input {
    name: "param_residual_network_8_residual_dense_block1_conv_layer5_b"
    type {
      tensor_type {
        elem_type: 1
        shape {
          dim {
            dim_value: 64
          }
        }
      }
    }
  }
  input {
    name: "param_residual_network_8_residual_dense_block2_conv_layer1_W"
    type {
      tensor_type {
        elem_type: 1
        shape {
          dim {
            dim_value: 32
          }
          dim {
            dim_value: 64
          }
          dim {
            dim_value: 3
          }
          dim {
            dim_value: 3
          }
        }
      }
    }
  }
  input {
    name: "param_residual_network_8_residual_dense_block2_conv_layer1_b"
    type {
      tensor_type {
        elem_type: 1
        shape {
          dim {
            dim_value: 32
          }
        }
      }
    }
  }
  input {
    name: "param_residual_network_8_residual_dense_block2_conv_layer2_W"
    type {
      tensor_type {
        elem_type: 1
        shape {
          dim {
            dim_value: 32
          }
          dim {
            dim_value: 96
          }
          dim {
            dim_value: 3
          }
          dim {
            dim_value: 3
          }
        }
      }
    }
  }
  input {
    name: "param_residual_network_8_residual_dense_block2_conv_layer2_b"
    type {
      tensor_type {
        elem_type: 1
        shape {
          dim {
            dim_value: 32
          }
        }
      }
    }
  }
  input {
    name: "param_residual_network_8_residual_dense_block2_conv_layer3_W"
    type {
      tensor_type {
        elem_type: 1
        shape {
          dim {
            dim_value: 32
          }
          dim {
            dim_value: 128
          }
          dim {
            dim_value: 3
          }
          dim {
            dim_value: 3
          }
        }
      }
    }
  }
  input {
    name: "param_residual_network_8_residual_dense_block2_conv_layer3_b"
    type {
      tensor_type {
        elem_type: 1
        shape {
          dim {
            dim_value: 32
          }
        }
      }
    }
  }
  input {
    name: "param_residual_network_8_residual_dense_block2_conv_layer4_W"
    type {
      tensor_type {
        elem_type: 1
        shape {
          dim {
            dim_value: 32
          }
          dim {
            dim_value: 160
          }
          dim {
            dim_value: 3
          }
          dim {
            dim_value: 3
          }
        }
      }
    }
  }
  input {
    name: "param_residual_network_8_residual_dense_block2_conv_layer4_b"
    type {
      tensor_type {
        elem_type: 1
        shape {
          dim {
            dim_value: 32
          }
        }
      }
    }
  }
  input {
    name: "param_residual_network_8_residual_dense_block2_conv_layer5_W"
    type {
      tensor_type {
        elem_type: 1
        shape {
          dim {
            dim_value: 64
          }
          dim {
            dim_value: 192
          }
          dim {
            dim_value: 3
          }
          dim {
            dim_value: 3
          }
        }
      }
    }
  }
  input {
    name: "param_residual_network_8_residual_dense_block2_conv_layer5_b"
    type {
      tensor_type {
        elem_type: 1
        shape {
          dim {
            dim_value: 64
          }
        }
      }
    }
  }
  input {
    name: "param_residual_network_8_residual_dense_block3_conv_layer1_W"
    type {
      tensor_type {
        elem_type: 1
        shape {
          dim {
            dim_value: 32
          }
          dim {
            dim_value: 64
          }
          dim {
            dim_value: 3
          }
          dim {
            dim_value: 3
          }
        }
      }
    }
  }
  input {
    name: "param_residual_network_8_residual_dense_block3_conv_layer1_b"
    type {
      tensor_type {
        elem_type: 1
        shape {
          dim {
            dim_value: 32
          }
        }
      }
    }
  }
  input {
    name: "param_residual_network_8_residual_dense_block3_conv_layer2_W"
    type {
      tensor_type {
        elem_type: 1
        shape {
          dim {
            dim_value: 32
          }
          dim {
            dim_value: 96
          }
          dim {
            dim_value: 3
          }
          dim {
            dim_value: 3
          }
        }
      }
    }
  }
  input {
    name: "param_residual_network_8_residual_dense_block3_conv_layer2_b"
    type {
      tensor_type {
        elem_type: 1
        shape {
          dim {
            dim_value: 32
          }
        }
      }
    }
  }
  input {
    name: "param_residual_network_8_residual_dense_block3_conv_layer3_W"
    type {
      tensor_type {
        elem_type: 1
        shape {
          dim {
            dim_value: 32
          }
          dim {
            dim_value: 128
          }
          dim {
            dim_value: 3
          }
          dim {
            dim_value: 3
          }
        }
      }
    }
  }
  input {
    name: "param_residual_network_8_residual_dense_block3_conv_layer3_b"
    type {
      tensor_type {
        elem_type: 1
        shape {
          dim {
            dim_value: 32
          }
        }
      }
    }
  }
  input {
    name: "param_residual_network_8_residual_dense_block3_conv_layer4_W"
    type {
      tensor_type {
        elem_type: 1
        shape {
          dim {
            dim_value: 32
          }
          dim {
            dim_value: 160
          }
          dim {
            dim_value: 3
          }
          dim {
            dim_value: 3
          }
        }
      }
    }
  }
  input {
    name: "param_residual_network_8_residual_dense_block3_conv_layer4_b"
    type {
      tensor_type {
        elem_type: 1
        shape {
          dim {
            dim_value: 32
          }
        }
      }
    }
  }
  input {
    name: "param_residual_network_8_residual_dense_block3_conv_layer5_W"
    type {
      tensor_type {
        elem_type: 1
        shape {
          dim {
            dim_value: 64
          }
          dim {
            dim_value: 192
          }
          dim {
            dim_value: 3
          }
          dim {
            dim_value: 3
          }
        }
      }
    }
  }
  input {
    name: "param_residual_network_8_residual_dense_block3_conv_layer5_b"
    type {
      tensor_type {
        elem_type: 1
        shape {
          dim {
            dim_value: 64
          }
        }
      }
    }
  }
  input {
    name: "param_residual_network_9_residual_dense_block1_conv_layer1_W"
    type {
      tensor_type {
        elem_type: 1
        shape {
          dim {
            dim_value: 32
          }
          dim {
            dim_value: 64
          }
          dim {
            dim_value: 3
          }
          dim {
            dim_value: 3
          }
        }
      }
    }
  }
  input {
    name: "param_residual_network_9_residual_dense_block1_conv_layer1_b"
    type {
      tensor_type {
        elem_type: 1
        shape {
          dim {
            dim_value: 32
          }
        }
      }
    }
  }
  input {
    name: "param_residual_network_9_residual_dense_block1_conv_layer2_W"
    type {
      tensor_type {
        elem_type: 1
        shape {
          dim {
            dim_value: 32
          }
          dim {
            dim_value: 96
          }
          dim {
            dim_value: 3
          }
          dim {
            dim_value: 3
          }
        }
      }
    }
  }
  input {
    name: "param_residual_network_9_residual_dense_block1_conv_layer2_b"
    type {
      tensor_type {
        elem_type: 1
        shape {
          dim {
            dim_value: 32
          }
        }
      }
    }
  }
  input {
    name: "param_residual_network_9_residual_dense_block1_conv_layer3_W"
    type {
      tensor_type {
        elem_type: 1
        shape {
          dim {
            dim_value: 32
          }
          dim {
            dim_value: 128
          }
          dim {
            dim_value: 3
          }
          dim {
            dim_value: 3
          }
        }
      }
    }
  }
  input {
    name: "param_residual_network_9_residual_dense_block1_conv_layer3_b"
    type {
      tensor_type {
        elem_type: 1
        shape {
          dim {
            dim_value: 32
          }
        }
      }
    }
  }
  input {
    name: "param_residual_network_9_residual_dense_block1_conv_layer4_W"
    type {
      tensor_type {
        elem_type: 1
        shape {
          dim {
            dim_value: 32
          }
          dim {
            dim_value: 160
          }
          dim {
            dim_value: 3
          }
          dim {
            dim_value: 3
          }
        }
      }
    }
  }
  input {
    name: "param_residual_network_9_residual_dense_block1_conv_layer4_b"
    type {
      tensor_type {
        elem_type: 1
        shape {
          dim {
            dim_value: 32
          }
        }
      }
    }
  }
  input {
    name: "param_residual_network_9_residual_dense_block1_conv_layer5_W"
    type {
      tensor_type {
        elem_type: 1
        shape {
          dim {
            dim_value: 64
          }
          dim {
            dim_value: 192
          }
          dim {
            dim_value: 3
          }
          dim {
            dim_value: 3
          }
        }
      }
    }
  }
  input {
    name: "param_residual_network_9_residual_dense_block1_conv_layer5_b"
    type {
      tensor_type {
        elem_type: 1
        shape {
          dim {
            dim_value: 64
          }
        }
      }
    }
  }
  input {
    name: "param_residual_network_9_residual_dense_block2_conv_layer1_W"
    type {
      tensor_type {
        elem_type: 1
        shape {
          dim {
            dim_value: 32
          }
          dim {
            dim_value: 64
          }
          dim {
            dim_value: 3
          }
          dim {
            dim_value: 3
          }
        }
      }
    }
  }
  input {
    name: "param_residual_network_9_residual_dense_block2_conv_layer1_b"
    type {
      tensor_type {
        elem_type: 1
        shape {
          dim {
            dim_value: 32
          }
        }
      }
    }
  }
  input {
    name: "param_residual_network_9_residual_dense_block2_conv_layer2_W"
    type {
      tensor_type {
        elem_type: 1
        shape {
          dim {
            dim_value: 32
          }
          dim {
            dim_value: 96
          }
          dim {
            dim_value: 3
          }
          dim {
            dim_value: 3
          }
        }
      }
    }
  }
  input {
    name: "param_residual_network_9_residual_dense_block2_conv_layer2_b"
    type {
      tensor_type {
        elem_type: 1
        shape {
          dim {
            dim_value: 32
          }
        }
      }
    }
  }
  input {
    name: "param_residual_network_9_residual_dense_block2_conv_layer3_W"
    type {
      tensor_type {
        elem_type: 1
        shape {
          dim {
            dim_value: 32
          }
          dim {
            dim_value: 128
          }
          dim {
            dim_value: 3
          }
          dim {
            dim_value: 3
          }
        }
      }
    }
  }
  input {
    name: "param_residual_network_9_residual_dense_block2_conv_layer3_b"
    type {
      tensor_type {
        elem_type: 1
        shape {
          dim {
            dim_value: 32
          }
        }
      }
    }
  }
  input {
    name: "param_residual_network_9_residual_dense_block2_conv_layer4_W"
    type {
      tensor_type {
        elem_type: 1
        shape {
          dim {
            dim_value: 32
          }
          dim {
            dim_value: 160
          }
          dim {
            dim_value: 3
          }
          dim {
            dim_value: 3
          }
        }
      }
    }
  }
  input {
    name: "param_residual_network_9_residual_dense_block2_conv_layer4_b"
    type {
      tensor_type {
        elem_type: 1
        shape {
          dim {
            dim_value: 32
          }
        }
      }
    }
  }
  input {
    name: "param_residual_network_9_residual_dense_block2_conv_layer5_W"
    type {
      tensor_type {
        elem_type: 1
        shape {
          dim {
            dim_value: 64
          }
          dim {
            dim_value: 192
          }
          dim {
            dim_value: 3
          }
          dim {
            dim_value: 3
          }
        }
      }
    }
  }
  input {
    name: "param_residual_network_9_residual_dense_block2_conv_layer5_b"
    type {
      tensor_type {
        elem_type: 1
        shape {
          dim {
            dim_value: 64
          }
        }
      }
    }
  }
  input {
    name: "param_residual_network_9_residual_dense_block3_conv_layer1_W"
    type {
      tensor_type {
        elem_type: 1
        shape {
          dim {
            dim_value: 32
          }
          dim {
            dim_value: 64
          }
          dim {
            dim_value: 3
          }
          dim {
            dim_value: 3
          }
        }
      }
    }
  }
  input {
    name: "param_residual_network_9_residual_dense_block3_conv_layer1_b"
    type {
      tensor_type {
        elem_type: 1
        shape {
          dim {
            dim_value: 32
          }
        }
      }
    }
  }
  input {
    name: "param_residual_network_9_residual_dense_block3_conv_layer2_W"
    type {
      tensor_type {
        elem_type: 1
        shape {
          dim {
            dim_value: 32
          }
          dim {
            dim_value: 96
          }
          dim {
            dim_value: 3
          }
          dim {
            dim_value: 3
          }
        }
      }
    }
  }
  input {
    name: "param_residual_network_9_residual_dense_block3_conv_layer2_b"
    type {
      tensor_type {
        elem_type: 1
        shape {
          dim {
            dim_value: 32
          }
        }
      }
    }
  }
  input {
    name: "param_residual_network_9_residual_dense_block3_conv_layer3_W"
    type {
      tensor_type {
        elem_type: 1
        shape {
          dim {
            dim_value: 32
          }
          dim {
            dim_value: 128
          }
          dim {
            dim_value: 3
          }
          dim {
            dim_value: 3
          }
        }
      }
    }
  }
  input {
    name: "param_residual_network_9_residual_dense_block3_conv_layer3_b"
    type {
      tensor_type {
        elem_type: 1
        shape {
          dim {
            dim_value: 32
          }
        }
      }
    }
  }
  input {
    name: "param_residual_network_9_residual_dense_block3_conv_layer4_W"
    type {
      tensor_type {
        elem_type: 1
        shape {
          dim {
            dim_value: 32
          }
          dim {
            dim_value: 160
          }
          dim {
            dim_value: 3
          }
          dim {
            dim_value: 3
          }
        }
      }
    }
  }
  input {
    name: "param_residual_network_9_residual_dense_block3_conv_layer4_b"
    type {
      tensor_type {
        elem_type: 1
        shape {
          dim {
            dim_value: 32
          }
        }
      }
    }
  }
  input {
    name: "param_residual_network_9_residual_dense_block3_conv_layer5_W"
    type {
      tensor_type {
        elem_type: 1
        shape {
          dim {
            dim_value: 64
          }
          dim {
            dim_value: 192
          }
          dim {
            dim_value: 3
          }
          dim {
            dim_value: 3
          }
        }
      }
    }
  }
  input {
    name: "param_residual_network_9_residual_dense_block3_conv_layer5_b"
    type {
      tensor_type {
        elem_type: 1
        shape {
          dim {
            dim_value: 64
          }
        }
      }
    }
  }
  input {
    name: "param_residual_network_10_residual_dense_block1_conv_layer1_W"
    type {
      tensor_type {
        elem_type: 1
        shape {
          dim {
            dim_value: 32
          }
          dim {
            dim_value: 64
          }
          dim {
            dim_value: 3
          }
          dim {
            dim_value: 3
          }
        }
      }
    }
  }
  input {
    name: "param_residual_network_10_residual_dense_block1_conv_layer1_b"
    type {
      tensor_type {
        elem_type: 1
        shape {
          dim {
            dim_value: 32
          }
        }
      }
    }
  }
  input {
    name: "param_residual_network_10_residual_dense_block1_conv_layer2_W"
    type {
      tensor_type {
        elem_type: 1
        shape {
          dim {
            dim_value: 32
          }
          dim {
            dim_value: 96
          }
          dim {
            dim_value: 3
          }
          dim {
            dim_value: 3
          }
        }
      }
    }
  }
  input {
    name: "param_residual_network_10_residual_dense_block1_conv_layer2_b"
    type {
      tensor_type {
        elem_type: 1
        shape {
          dim {
            dim_value: 32
          }
        }
      }
    }
  }
  input {
    name: "param_residual_network_10_residual_dense_block1_conv_layer3_W"
    type {
      tensor_type {
        elem_type: 1
        shape {
          dim {
            dim_value: 32
          }
          dim {
            dim_value: 128
          }
          dim {
            dim_value: 3
          }
          dim {
            dim_value: 3
          }
        }
      }
    }
  }
  input {
    name: "param_residual_network_10_residual_dense_block1_conv_layer3_b"
    type {
      tensor_type {
        elem_type: 1
        shape {
          dim {
            dim_value: 32
          }
        }
      }
    }
  }
  input {
    name: "param_residual_network_10_residual_dense_block1_conv_layer4_W"
    type {
      tensor_type {
        elem_type: 1
        shape {
          dim {
            dim_value: 32
          }
          dim {
            dim_value: 160
          }
          dim {
            dim_value: 3
          }
          dim {
            dim_value: 3
          }
        }
      }
    }
  }
  input {
    name: "param_residual_network_10_residual_dense_block1_conv_layer4_b"
    type {
      tensor_type {
        elem_type: 1
        shape {
          dim {
            dim_value: 32
          }
        }
      }
    }
  }
  input {
    name: "param_residual_network_10_residual_dense_block1_conv_layer5_W"
    type {
      tensor_type {
        elem_type: 1
        shape {
          dim {
            dim_value: 64
          }
          dim {
            dim_value: 192
          }
          dim {
            dim_value: 3
          }
          dim {
            dim_value: 3
          }
        }
      }
    }
  }
  input {
    name: "param_residual_network_10_residual_dense_block1_conv_layer5_b"
    type {
      tensor_type {
        elem_type: 1
        shape {
          dim {
            dim_value: 64
          }
        }
      }
    }
  }
  input {
    name: "param_residual_network_10_residual_dense_block2_conv_layer1_W"
    type {
      tensor_type {
        elem_type: 1
        shape {
          dim {
            dim_value: 32
          }
          dim {
            dim_value: 64
          }
          dim {
            dim_value: 3
          }
          dim {
            dim_value: 3
          }
        }
      }
    }
  }
  input {
    name: "param_residual_network_10_residual_dense_block2_conv_layer1_b"
    type {
      tensor_type {
        elem_type: 1
        shape {
          dim {
            dim_value: 32
          }
        }
      }
    }
  }
  input {
    name: "param_residual_network_10_residual_dense_block2_conv_layer2_W"
    type {
      tensor_type {
        elem_type: 1
        shape {
          dim {
            dim_value: 32
          }
          dim {
            dim_value: 96
          }
          dim {
            dim_value: 3
          }
          dim {
            dim_value: 3
          }
        }
      }
    }
  }
  input {
    name: "param_residual_network_10_residual_dense_block2_conv_layer2_b"
    type {
      tensor_type {
        elem_type: 1
        shape {
          dim {
            dim_value: 32
          }
        }
      }
    }
  }
  input {
    name: "param_residual_network_10_residual_dense_block2_conv_layer3_W"
    type {
      tensor_type {
        elem_type: 1
        shape {
          dim {
            dim_value: 32
          }
          dim {
            dim_value: 128
          }
          dim {
            dim_value: 3
          }
          dim {
            dim_value: 3
          }
        }
      }
    }
  }
  input {
    name: "param_residual_network_10_residual_dense_block2_conv_layer3_b"
    type {
      tensor_type {
        elem_type: 1
        shape {
          dim {
            dim_value: 32
          }
        }
      }
    }
  }
  input {
    name: "param_residual_network_10_residual_dense_block2_conv_layer4_W"
    type {
      tensor_type {
        elem_type: 1
        shape {
          dim {
            dim_value: 32
          }
          dim {
            dim_value: 160
          }
          dim {
            dim_value: 3
          }
          dim {
            dim_value: 3
          }
        }
      }
    }
  }
  input {
    name: "param_residual_network_10_residual_dense_block2_conv_layer4_b"
    type {
      tensor_type {
        elem_type: 1
        shape {
          dim {
            dim_value: 32
          }
        }
      }
    }
  }
  input {
    name: "param_residual_network_10_residual_dense_block2_conv_layer5_W"
    type {
      tensor_type {
        elem_type: 1
        shape {
          dim {
            dim_value: 64
          }
          dim {
            dim_value: 192
          }
          dim {
            dim_value: 3
          }
          dim {
            dim_value: 3
          }
        }
      }
    }
  }
  input {
    name: "param_residual_network_10_residual_dense_block2_conv_layer5_b"
    type {
      tensor_type {
        elem_type: 1
        shape {
          dim {
            dim_value: 64
          }
        }
      }
    }
  }
  input {
    name: "param_residual_network_10_residual_dense_block3_conv_layer1_W"
    type {
      tensor_type {
        elem_type: 1
        shape {
          dim {
            dim_value: 32
          }
          dim {
            dim_value: 64
          }
          dim {
            dim_value: 3
          }
          dim {
            dim_value: 3
          }
        }
      }
    }
  }
  input {
    name: "param_residual_network_10_residual_dense_block3_conv_layer1_b"
    type {
      tensor_type {
        elem_type: 1
        shape {
          dim {
            dim_value: 32
          }
        }
      }
    }
  }
  input {
    name: "param_residual_network_10_residual_dense_block3_conv_layer2_W"
    type {
      tensor_type {
        elem_type: 1
        shape {
          dim {
            dim_value: 32
          }
          dim {
            dim_value: 96
          }
          dim {
            dim_value: 3
          }
          dim {
            dim_value: 3
          }
        }
      }
    }
  }
  input {
    name: "param_residual_network_10_residual_dense_block3_conv_layer2_b"
    type {
      tensor_type {
        elem_type: 1
        shape {
          dim {
            dim_value: 32
          }
        }
      }
    }
  }
  input {
    name: "param_residual_network_10_residual_dense_block3_conv_layer3_W"
    type {
      tensor_type {
        elem_type: 1
        shape {
          dim {
            dim_value: 32
          }
          dim {
            dim_value: 128
          }
          dim {
            dim_value: 3
          }
          dim {
            dim_value: 3
          }
        }
      }
    }
  }
  input {
    name: "param_residual_network_10_residual_dense_block3_conv_layer3_b"
    type {
      tensor_type {
        elem_type: 1
        shape {
          dim {
            dim_value: 32
          }
        }
      }
    }
  }
  input {
    name: "param_residual_network_10_residual_dense_block3_conv_layer4_W"
    type {
      tensor_type {
        elem_type: 1
        shape {
          dim {
            dim_value: 32
          }
          dim {
            dim_value: 160
          }
          dim {
            dim_value: 3
          }
          dim {
            dim_value: 3
          }
        }
      }
    }
  }
  input {
    name: "param_residual_network_10_residual_dense_block3_conv_layer4_b"
    type {
      tensor_type {
        elem_type: 1
        shape {
          dim {
            dim_value: 32
          }
        }
      }
    }
  }
  input {
    name: "param_residual_network_10_residual_dense_block3_conv_layer5_W"
    type {
      tensor_type {
        elem_type: 1
        shape {
          dim {
            dim_value: 64
          }
          dim {
            dim_value: 192
          }
          dim {
            dim_value: 3
          }
          dim {
            dim_value: 3
          }
        }
      }
    }
  }
  input {
    name: "param_residual_network_10_residual_dense_block3_conv_layer5_b"
    type {
      tensor_type {
        elem_type: 1
        shape {
          dim {
            dim_value: 64
          }
        }
      }
    }
  }
  input {
    name: "param_residual_network_11_residual_dense_block1_conv_layer1_W"
    type {
      tensor_type {
        elem_type: 1
        shape {
          dim {
            dim_value: 32
          }
          dim {
            dim_value: 64
          }
          dim {
            dim_value: 3
          }
          dim {
            dim_value: 3
          }
        }
      }
    }
  }
  input {
    name: "param_residual_network_11_residual_dense_block1_conv_layer1_b"
    type {
      tensor_type {
        elem_type: 1
        shape {
          dim {
            dim_value: 32
          }
        }
      }
    }
  }
  input {
    name: "param_residual_network_11_residual_dense_block1_conv_layer2_W"
    type {
      tensor_type {
        elem_type: 1
        shape {
          dim {
            dim_value: 32
          }
          dim {
            dim_value: 96
          }
          dim {
            dim_value: 3
          }
          dim {
            dim_value: 3
          }
        }
      }
    }
  }
  input {
    name: "param_residual_network_11_residual_dense_block1_conv_layer2_b"
    type {
      tensor_type {
        elem_type: 1
        shape {
          dim {
            dim_value: 32
          }
        }
      }
    }
  }
  input {
    name: "param_residual_network_11_residual_dense_block1_conv_layer3_W"
    type {
      tensor_type {
        elem_type: 1
        shape {
          dim {
            dim_value: 32
          }
          dim {
            dim_value: 128
          }
          dim {
            dim_value: 3
          }
          dim {
            dim_value: 3
          }
        }
      }
    }
  }
  input {
    name: "param_residual_network_11_residual_dense_block1_conv_layer3_b"
    type {
      tensor_type {
        elem_type: 1
        shape {
          dim {
            dim_value: 32
          }
        }
      }
    }
  }
  input {
    name: "param_residual_network_11_residual_dense_block1_conv_layer4_W"
    type {
      tensor_type {
        elem_type: 1
        shape {
          dim {
            dim_value: 32
          }
          dim {
            dim_value: 160
          }
          dim {
            dim_value: 3
          }
          dim {
            dim_value: 3
          }
        }
      }
    }
  }
  input {
    name: "param_residual_network_11_residual_dense_block1_conv_layer4_b"
    type {
      tensor_type {
        elem_type: 1
        shape {
          dim {
            dim_value: 32
          }
        }
      }
    }
  }
  input {
    name: "param_residual_network_11_residual_dense_block1_conv_layer5_W"
    type {
      tensor_type {
        elem_type: 1
        shape {
          dim {
            dim_value: 64
          }
          dim {
            dim_value: 192
          }
          dim {
            dim_value: 3
          }
          dim {
            dim_value: 3
          }
        }
      }
    }
  }
  input {
    name: "param_residual_network_11_residual_dense_block1_conv_layer5_b"
    type {
      tensor_type {
        elem_type: 1
        shape {
          dim {
            dim_value: 64
          }
        }
      }
    }
  }
  input {
    name: "param_residual_network_11_residual_dense_block2_conv_layer1_W"
    type {
      tensor_type {
        elem_type: 1
        shape {
          dim {
            dim_value: 32
          }
          dim {
            dim_value: 64
          }
          dim {
            dim_value: 3
          }
          dim {
            dim_value: 3
          }
        }
      }
    }
  }
  input {
    name: "param_residual_network_11_residual_dense_block2_conv_layer1_b"
    type {
      tensor_type {
        elem_type: 1
        shape {
          dim {
            dim_value: 32
          }
        }
      }
    }
  }
  input {
    name: "param_residual_network_11_residual_dense_block2_conv_layer2_W"
    type {
      tensor_type {
        elem_type: 1
        shape {
          dim {
            dim_value: 32
          }
          dim {
            dim_value: 96
          }
          dim {
            dim_value: 3
          }
          dim {
            dim_value: 3
          }
        }
      }
    }
  }
  input {
    name: "param_residual_network_11_residual_dense_block2_conv_layer2_b"
    type {
      tensor_type {
        elem_type: 1
        shape {
          dim {
            dim_value: 32
          }
        }
      }
    }
  }
  input {
    name: "param_residual_network_11_residual_dense_block2_conv_layer3_W"
    type {
      tensor_type {
        elem_type: 1
        shape {
          dim {
            dim_value: 32
          }
          dim {
            dim_value: 128
          }
          dim {
            dim_value: 3
          }
          dim {
            dim_value: 3
          }
        }
      }
    }
  }
  input {
    name: "param_residual_network_11_residual_dense_block2_conv_layer3_b"
    type {
      tensor_type {
        elem_type: 1
        shape {
          dim {
            dim_value: 32
          }
        }
      }
    }
  }
  input {
    name: "param_residual_network_11_residual_dense_block2_conv_layer4_W"
    type {
      tensor_type {
        elem_type: 1
        shape {
          dim {
            dim_value: 32
          }
          dim {
            dim_value: 160
          }
          dim {
            dim_value: 3
          }
          dim {
            dim_value: 3
          }
        }
      }
    }
  }
  input {
    name: "param_residual_network_11_residual_dense_block2_conv_layer4_b"
    type {
      tensor_type {
        elem_type: 1
        shape {
          dim {
            dim_value: 32
          }
        }
      }
    }
  }
  input {
    name: "param_residual_network_11_residual_dense_block2_conv_layer5_W"
    type {
      tensor_type {
        elem_type: 1
        shape {
          dim {
            dim_value: 64
          }
          dim {
            dim_value: 192
          }
          dim {
            dim_value: 3
          }
          dim {
            dim_value: 3
          }
        }
      }
    }
  }
  input {
    name: "param_residual_network_11_residual_dense_block2_conv_layer5_b"
    type {
      tensor_type {
        elem_type: 1
        shape {
          dim {
            dim_value: 64
          }
        }
      }
    }
  }
  input {
    name: "param_residual_network_11_residual_dense_block3_conv_layer1_W"
    type {
      tensor_type {
        elem_type: 1
        shape {
          dim {
            dim_value: 32
          }
          dim {
            dim_value: 64
          }
          dim {
            dim_value: 3
          }
          dim {
            dim_value: 3
          }
        }
      }
    }
  }
  input {
    name: "param_residual_network_11_residual_dense_block3_conv_layer1_b"
    type {
      tensor_type {
        elem_type: 1
        shape {
          dim {
            dim_value: 32
          }
        }
      }
    }
  }
  input {
    name: "param_residual_network_11_residual_dense_block3_conv_layer2_W"
    type {
      tensor_type {
        elem_type: 1
        shape {
          dim {
            dim_value: 32
          }
          dim {
            dim_value: 96
          }
          dim {
            dim_value: 3
          }
          dim {
            dim_value: 3
          }
        }
      }
    }
  }
  input {
    name: "param_residual_network_11_residual_dense_block3_conv_layer2_b"
    type {
      tensor_type {
        elem_type: 1
        shape {
          dim {
            dim_value: 32
          }
        }
      }
    }
  }
  input {
    name: "param_residual_network_11_residual_dense_block3_conv_layer3_W"
    type {
      tensor_type {
        elem_type: 1
        shape {
          dim {
            dim_value: 32
          }
          dim {
            dim_value: 128
          }
          dim {
            dim_value: 3
          }
          dim {
            dim_value: 3
          }
        }
      }
    }
  }
  input {
    name: "param_residual_network_11_residual_dense_block3_conv_layer3_b"
    type {
      tensor_type {
        elem_type: 1
        shape {
          dim {
            dim_value: 32
          }
        }
      }
    }
  }
  input {
    name: "param_residual_network_11_residual_dense_block3_conv_layer4_W"
    type {
      tensor_type {
        elem_type: 1
        shape {
          dim {
            dim_value: 32
          }
          dim {
            dim_value: 160
          }
          dim {
            dim_value: 3
          }
          dim {
            dim_value: 3
          }
        }
      }
    }
  }
  input {
    name: "param_residual_network_11_residual_dense_block3_conv_layer4_b"
    type {
      tensor_type {
        elem_type: 1
        shape {
          dim {
            dim_value: 32
          }
        }
      }
    }
  }
  input {
    name: "param_residual_network_11_residual_dense_block3_conv_layer5_W"
    type {
      tensor_type {
        elem_type: 1
        shape {
          dim {
            dim_value: 64
          }
          dim {
            dim_value: 192
          }
          dim {
            dim_value: 3
          }
          dim {
            dim_value: 3
          }
        }
      }
    }
  }
  input {
    name: "param_residual_network_11_residual_dense_block3_conv_layer5_b"
    type {
      tensor_type {
        elem_type: 1
        shape {
          dim {
            dim_value: 64
          }
        }
      }
    }
  }
  input {
    name: "Input_0"
    type {
      tensor_type {
        elem_type: 1
        shape {
          dim {
            dim_value: 32
          }
          dim {
            dim_value: 1
          }
          dim {
            dim_value: 10
          }
          dim {
            dim_value: 10
          }
        }
      }
    }
  }
  input {
    name: "Input_1"
    type {
      tensor_type {
        elem_type: 1
        shape {
          dim {
            dim_value: 32
          }
          dim {
            dim_value: 1
          }
          dim {
            dim_value: 100
          }
          dim {
            dim_value: 100
          }
        }
      }
    }
  }
  input {
    name: "Input_2"
    type {
      tensor_type {
        elem_type: 1
        shape {
          dim {
            dim_value: 32
          }
          dim {
            dim_value: 1
          }
          dim {
            dim_value: 20
          }
          dim {
            dim_value: 20
          }
        }
      }
    }
  }
  input {
    name: "Input_3"
    type {
      tensor_type {
        elem_type: 1
        shape {
          dim {
            dim_value: 32
          }
          dim {
            dim_value: 1
          }
          dim {
            dim_value: 10
          }
          dim {
            dim_value: 10
          }
        }
      }
    }
  }
  input {
    name: "v791"
    type {
      tensor_type {
        elem_type: 1
        shape {
        }
      }
    }
  }
  input {
    name: "v808"
    type {
      tensor_type {
        elem_type: 1
        shape {
        }
      }
    }
  }
  input {
    name: "v825"
    type {
      tensor_type {
        elem_type: 1
        shape {
        }
      }
    }
  }
  input {
    name: "v829"
    type {
      tensor_type {
        elem_type: 1
        shape {
        }
      }
    }
  }
  input {
    name: "v846"
    type {
      tensor_type {
        elem_type: 1
        shape {
        }
      }
    }
  }
  input {
    name: "v863"
    type {
      tensor_type {
        elem_type: 1
        shape {
        }
      }
    }
  }
  input {
    name: "v880"
    type {
      tensor_type {
        elem_type: 1
        shape {
        }
      }
    }
  }
  input {
    name: "v884"
    type {
      tensor_type {
        elem_type: 1
        shape {
        }
      }
    }
  }
  input {
    name: "v901"
    type {
      tensor_type {
        elem_type: 1
        shape {
        }
      }
    }
  }
  input {
    name: "v918"
    type {
      tensor_type {
        elem_type: 1
        shape {
        }
      }
    }
  }
  input {
    name: "v935"
    type {
      tensor_type {
        elem_type: 1
        shape {
        }
      }
    }
  }
  input {
    name: "v939"
    type {
      tensor_type {
        elem_type: 1
        shape {
        }
      }
    }
  }
  input {
    name: "v956"
    type {
      tensor_type {
        elem_type: 1
        shape {
        }
      }
    }
  }
  input {
    name: "v973"
    type {
      tensor_type {
        elem_type: 1
        shape {
        }
      }
    }
  }
  input {
    name: "v990"
    type {
      tensor_type {
        elem_type: 1
        shape {
        }
      }
    }
  }
  input {
    name: "v994"
    type {
      tensor_type {
        elem_type: 1
        shape {
        }
      }
    }
  }
  input {
    name: "v1011"
    type {
      tensor_type {
        elem_type: 1
        shape {
        }
      }
    }
  }
  input {
    name: "v1028"
    type {
      tensor_type {
        elem_type: 1
        shape {
        }
      }
    }
  }
  input {
    name: "v1045"
    type {
      tensor_type {
        elem_type: 1
        shape {
        }
      }
    }
  }
  input {
    name: "v1049"
    type {
      tensor_type {
        elem_type: 1
        shape {
        }
      }
    }
  }
  input {
    name: "v1066"
    type {
      tensor_type {
        elem_type: 1
        shape {
        }
      }
    }
  }
  input {
    name: "v1083"
    type {
      tensor_type {
        elem_type: 1
        shape {
        }
      }
    }
  }
  input {
    name: "v1100"
    type {
      tensor_type {
        elem_type: 1
        shape {
        }
      }
    }
  }
  input {
    name: "v1104"
    type {
      tensor_type {
        elem_type: 1
        shape {
        }
      }
    }
  }
  input {
    name: "v1121"
    type {
      tensor_type {
        elem_type: 1
        shape {
        }
      }
    }
  }
  input {
    name: "v1138"
    type {
      tensor_type {
        elem_type: 1
        shape {
        }
      }
    }
  }
  input {
    name: "v1155"
    type {
      tensor_type {
        elem_type: 1
        shape {
        }
      }
    }
  }
  input {
    name: "v1159"
    type {
      tensor_type {
        elem_type: 1
        shape {
        }
      }
    }
  }
  input {
    name: "v1176"
    type {
      tensor_type {
        elem_type: 1
        shape {
        }
      }
    }
  }
  input {
    name: "v1193"
    type {
      tensor_type {
        elem_type: 1
        shape {
        }
      }
    }
  }
  input {
    name: "v1210"
    type {
      tensor_type {
        elem_type: 1
        shape {
        }
      }
    }
  }
  input {
    name: "v1214"
    type {
      tensor_type {
        elem_type: 1
        shape {
        }
      }
    }
  }
  input {
    name: "v1231"
    type {
      tensor_type {
        elem_type: 1
        shape {
        }
      }
    }
  }
  input {
    name: "v1248"
    type {
      tensor_type {
        elem_type: 1
        shape {
        }
      }
    }
  }
  input {
    name: "v1265"
    type {
      tensor_type {
        elem_type: 1
        shape {
        }
      }
    }
  }
  input {
    name: "v1269"
    type {
      tensor_type {
        elem_type: 1
        shape {
        }
      }
    }
  }
  input {
    name: "v1286"
    type {
      tensor_type {
        elem_type: 1
        shape {
        }
      }
    }
  }
  input {
    name: "v1303"
    type {
      tensor_type {
        elem_type: 1
        shape {
        }
      }
    }
  }
  input {
    name: "v1320"
    type {
      tensor_type {
        elem_type: 1
        shape {
        }
      }
    }
  }
  input {
    name: "v1324"
    type {
      tensor_type {
        elem_type: 1
        shape {
        }
      }
    }
  }
  input {
    name: "v1341"
    type {
      tensor_type {
        elem_type: 1
        shape {
        }
      }
    }
  }
  input {
    name: "v1358"
    type {
      tensor_type {
        elem_type: 1
        shape {
        }
      }
    }
  }
  input {
    name: "v1375"
    type {
      tensor_type {
        elem_type: 1
        shape {
        }
      }
    }
  }
  input {
    name: "v1379"
    type {
      tensor_type {
        elem_type: 1
        shape {
        }
      }
    }
  }
  input {
    name: "v1396"
    type {
      tensor_type {
        elem_type: 1
        shape {
        }
      }
    }
  }
  input {
    name: "v1413"
    type {
      tensor_type {
        elem_type: 1
        shape {
        }
      }
    }
  }
  input {
    name: "v1430"
    type {
      tensor_type {
        elem_type: 1
        shape {
        }
      }
    }
  }
  input {
    name: "v1434"
    type {
      tensor_type {
        elem_type: 1
        shape {
        }
      }
    }
  }
  input {
    name: "v1440"
    type {
      tensor_type {
        elem_type: 1
        shape {
          dim {
            dim_value: 4
          }
        }
      }
    }
  }
  input {
    name: "v1445"
    type {
      tensor_type {
        elem_type: 1
        shape {
          dim {
            dim_value: 4
          }
        }
      }
    }
  }
  output {
    name: "Convolution2DFunction_189"
    type {
      tensor_type {
        elem_type: 1
        shape {
          dim {
            dim_value: 32
          }
          dim {
            dim_value: 1
          }
          dim {
            dim_value: 32
          }
          dim {
            dim_value: 32
          }
        }
      }
    }
  }
}
opset_import {
  domain: ""
  version: 9
}

